Assets/MyObjects/cap_new.onnx (onnx, 13501 bytes, 10 tensors)

fc1.weight f4 [8, 16]
000000 39 f3 0d 3f d5 05 0c 3f 8f 93 66 bd 54 38 87 be
       0.55449253 0.546964 -0.056293067 -0.26410162
000010 23 df 56 be 92 4b 9b 3d 4d 8e 12 3f df d5 91 3d
       -0.20983557 0.07582773 0.57248384 0.07120871
000020 87 ec 25 3e a9 4a 37 3f 91 2f c0 be 7d 42 a3 be
       0.1620351 0.715983 -0.3753629 -0.31886664
000030 2b 92 33 bf ed 4b c8 3d c0 fd 2d 3f ed 32 28 bf
       -0.7014491 0.09780107 0.67965317 -0.65702707
000040 ee 04 af 3e 08 0e cb 3d 43 68 56 3e 32 36 88 be
       0.3418345 0.099147856 0.2093821 -0.26603848
000050 33 2b 8a be 50 47 09 3f 3f 17 94 3e 67 8f 5f be
       -0.26986083 0.5362444 0.28923985 -0.21832047
000060 a3 91 e1 3e ed 79 91 3e 8a 32 3f bf 18 d0 d2 3e
       0.44056424 0.28413334 -0.7468649 0.41174388
000070 25 49 23 bf e2 b0 83 3e 45 c5 0a 3f af dd 38 bf
       -0.63783485 0.25720888 0.5420726 -0.7221326
000080 27 9a 63 3e b7 11 64 3e a3 86 20 3f 02 8a c3 be
       0.22226773 0.22272383 0.6270544 -0.3819123
000090 70 86 0b bf 65 34 ae be dd d5 9a 3e 82 3c 0e 3f
       -0.5450201 -0.3402435 0.3024129 0.5556108
0000a0 a9 53 19 bf 41 71 0c 3f 63 68 2a 3e 6b b2 d1 3c
       -0.5989328 0.5486031 0.16641383 0.025597772
0000b0 2d 79 cb 3d bf 5a 38 bf 46 62 57 be 12 2c a9 3d
       0.09935222 -0.7201347 -0.21033582 0.08260359
0000c0 7f ce ed bd 9d 7c 0e 3e 10 0a 23 bf 72 1e 5f 3e
       -0.11611652 0.13914724 -0.6368723 0.21788958
0000d0 75 11 cc 3e c4 52 ce be f7 2f e1 bd 30 b3 84 bd
       0.3985707 -0.4029752 -0.10995477 -0.0647949
0000e0 1f f7 98 3d 02 fa c6 be 64 e6 0e 3f 69 25 1b bf
       0.074690096 -0.38862616 0.558203 -0.6060396
0000f0 d2 05 02 3e 61 77 11 3e 3d 28 ae 3c 81 f8 85 3e
       0.12697533 0.14205696 0.021259421 0.26166156
000100 4d 2c 1b 3f d7 66 29 3f 32 f7 5d 3d 47 f9 23 bf
       0.6061447 0.66172546 0.054190822 -0.6405224
000110 06 ff f4 be e7 f8 b8 be bd 64 09 3f b5 c4 b6 3e
       -0.47850817 -0.36127397 0.5366934 0.3569695
000120 b0 a5 16 3d 33 cf fa 3e 5e ed 40 3e 3d d6 af be
       0.036779106 0.48986205 0.18840548 -0.34343138
000130 d8 91 f8 be 68 f4 f8 be ab 5b 05 3f 80 a2 ad be
       -0.4854877 -0.48623967 0.52093 -0.3391304
000140 33 54 55 be eb 5f 98 bd 15 82 8c be 7c e5 5b 3e
       -0.208329 -0.0744017 -0.27442995 0.2147426
000150 e3 f7 21 3e b0 7f df be 2e 47 89 be b8 ba 29 3e
       0.15817218 -0.43652105 -0.26812118 0.16575134
000160 2e ff 8d be ba db bd be 6b 92 5b 3f 32 1a dd be
       -0.2773375 -0.370817 0.8577029 -0.43184048
000170 8e 08 1a 3f c8 98 bb be dc ba ee be fb 5c 38 3f
       0.60169303 -0.3664 -0.46626937 0.72016877
000180 b1 c6 04 3e d2 7f 9d bd bb 51 2e 3f 3b 7d b5 be
       0.1296642 -0.076903954 0.6809346 -0.35447106
000190 a3 7f 0e bf 1e b6 22 3e 7d c8 ad 3d 72 de 5d 3e
       -0.5566351 0.15889785 0.08485506 0.21666887
0001a0 fc 86 3e be 2b 82 85 3e d0 46 fa bd 18 c2 06 3f
       -0.1860618 0.26075873 -0.12220538 0.52639914
0001b0 ca ae 8e 3d be bb 0a bf d7 a5 2f be c5 77 ab 39
       0.06966932 -0.5419272 -0.17153107 0.00032704897
0001c0 a5 eb 16 3f 65 b8 2e 3f d3 3f 5c 3d b5 6c 1b bf
       0.58953315 0.68250114 0.053771805 -0.6071275
0001d0 73 25 e1 be b0 46 cc be 92 6b f7 3e 0c 0f b8 3e
       -0.43973884 -0.3989768 0.48324257 0.3594898
0001e0 34 be 90 3d 8f b2 d7 3e ef a6 88 3e 83 c6 aa be
       0.07067528 0.42128417 0.2668986 -0.33354577
0001f0 b8 03 e6 be e7 34 00 bf a2 5e 01 3f 5e 25 8f be
       -0.44924712 -0.5008072 0.50535023 -0.27958196

fc1.bias f4 [8]
000000 03 73 94 bc a1 24 03 be a6 a7 0f bf a2 99 ff 3e
       -0.018121248 -0.12806942 -0.56115186 0.499219
000010 be 38 ee be df f7 2e bd 12 a5 7c bf 93 95 4f bf
       -0.46527666 -0.042716857 -0.9868938 -0.8108761

fc2.weight f4 [5, 8]
000000 9a f6 cd bf 95 5d 83 bf 64 89 cb bf 40 88 d5 3f
       -1.6090882 -1.0262934 -1.5901303 1.6682205
000010 e3 b9 6e bf b2 2f 58 3f 40 2b 9b bf c9 2e 88 bf
       -0.9325239 0.8444778 -1.2122574 -1.0639278
000020 15 95 7c 3f a6 c1 5b bf 4e 9c 80 3f c3 1b c5 3f
       0.9866498 -0.8584236 1.00477 1.5399097
000030 cc 93 b6 3f b3 fd 3c 3f e2 fa 55 bf a0 ac a9 3f
       1.4263854 0.73824614 -0.8358594 1.3255806
000040 27 2e 6a 3f 9b 07 d3 3f 7f 02 cf bf 96 0f 54 bf
       0.9147667 1.6486696 -1.6172637 -0.8283628
000050 80 b9 3c bf 96 13 c5 bf 10 60 74 bf 11 42 6a bf
       -0.7372055 -1.5396602 -0.9545908 -0.9150706
000060 f2 3f 96 3f 08 18 e0 3f 4f ba 9a 3f 42 83 99 bf
       1.1738265 1.7507334 1.2088107 -1.1993182
000070 40 1a d1 3f a3 cc c3 bf c4 02 ea 3f ce 02 c4 3f
       1.6336136 -1.5296825 1.8282094 1.5313356
000080 0d 9a bb bf b0 65 56 bf 6f 99 6d 3f eb f8 51 bf
       -1.4656388 -0.8374891 0.92812246 -0.82020444
000090 ae 9b 43 bf f5 80 21 3f 5b cc bf 3f 1f ba 61 bf
       -0.76409423 0.630874 1.4984239 -0.88174623

fc2.bias f4 [5]
000000 61 9a 1b bf 7b 56 14 3f 94 b5 db 3e 94 dd 5d bf
       -0.6078244 0.5794446 0.4291197 -0.86666226
000010 fa b1 3e 3f
       0.7449032

onnx::Conv_48 f4 [64, 3, 1]
000000 6c 15 0a c0 38 e3 22 40 c1 7c f1 bf 6f d3 af 3f
       -2.1575575 2.5451183 -1.8866197 1.37364
000010 9c 9f c3 be fa 76 40 c0 92 34 1a c0 fa a0 91 3f
       -0.3820771 -3.0072618 -2.4094586 1.1377251
000020 8a d4 9c 3e 98 ae 78 40 19 cf 7c 40 9c a6 8d 40
       0.30630904 3.8856564 3.9501402 4.426588
000030 ac f4 a5 40 ad 9d 63 3f a6 d4 12 3e f4 9e 70 bf
       5.186117 0.8891247 0.14338931 -0.93992543
000040 c5 70 57 40 5c 3d b6 3e 6d a6 19 c0 28 d5 39 c0
       3.366258 0.35593688 -2.4007828 -2.903635
000050 db 6b ef 3f f9 32 7b c0 5e 96 c2 be 76 f5 73 3c
       1.870479 -3.9249861 -0.38005346 0.014890065
000060 c5 05 cf 3f 94 89 4c c0 95 b6 e5 3e 1a 9d 9f 3e
       1.6173636 -3.195897 0.44865862 0.31174546
000070 fb 86 3d 40 86 28 e4 bf 7a 9f 47 40 47 e6 74 40
       2.9613636 -1.7824867 3.1191087 3.826555
000080 26 7f f1 3f 9a dc 15 3d 46 2c c0 bf 84 e3 14 40
       1.8866928 0.036587335 -1.5013511 2.3263865
000090 ee 13 ac be f3 01 2e c0 12 8c 6e c0 94 28 0c 40
       -0.33608955 -2.718869 -3.7272992 2.1899767
0000a0 ff ed 98 3f 3b b3 01 c0 e3 26 dd bf 65 33 11 3e
       1.1947631 -2.0265644 -1.7277492 0.14179762
0000b0 9f e5 49 40 23 e0 1c c0 2d 17 19 40 2e 4c a3 bf
       3.15464 -2.4511802 2.3920395 -1.2757623
0000c0 b1 74 a9 3f 14 a6 35 c0 68 ca 35 c0 13 f0 4b c0
       1.3238736 -2.8382616 -2.840479 -3.186528
0000d0 a1 5b 10 3e 40 e2 8e c0 62 94 08 c0 2a 5b 86 c0
       0.14097454 -4.4651184 -2.1340566 -4.1986284
0000e0 55 f3 7a 3f ff 57 53 be 51 94 2b c0 75 da 7d c0
       0.98027545 -0.20639037 -2.6809275 -3.9664586
0000f0 57 32 b7 bf 08 9f 11 40 3f a4 00 c0 3b 75 2a 40
       -1.4312238 2.2753315 -2.0100248 2.6634052
000100 f7 0c b8 bf cb ee 04 40 86 75 fd bf 85 93 18 40
       -1.4378957 2.0770748 -1.980149 2.3840039
000110 12 12 a5 3f 01 66 60 c0 fa 83 5a c0 52 1f 19 3f
       1.289614 -3.5062258 -3.4143052 0.59813416
000120 c3 a3 17 3e c7 5b a9 3f 59 46 90 40 4c cb 31 3e
       0.14808564 1.3231133 4.5085874 0.17362708
000130 16 29 ec be af 85 54 40 c1 7c 3c bc a4 fb 38 c0
       -0.46125096 3.3206594 -0.011504353 -2.890359
000140 78 ea 0b 40 2a 06 e3 bf 99 d7 b1 3f c9 cf 02 40
       2.1861858 -1.7736256 1.389392 2.0439322
000150 44 59 04 3f 50 66 22 bd 18 c3 6b c0 dd 9f 3b 40
       0.5169871 -0.039648354 -3.6837826 2.9316323
000160 33 7d 9f 3e 3b 2f 4e 40 59 c7 1f c0 94 06 f0 3f
       0.31150207 3.2216327 -2.4965422 1.8752007
000170 87 80 8c bf 29 ab 0e 40 df c0 cb bf 90 22 8e 3f
       -1.0976723 2.2291968 -1.5918235 1.1104298
000180 19 15 36 40 0b 7f 80 3f 9c 55 a9 bf 4a c3 eb bf
       2.8450377 1.003877 -1.3229251 -1.8418972
000190 0d ae 40 40 d0 17 8e 3e 49 e3 38 bf 56 45 24 bf
       3.0106232 0.27752542 -0.7222181 -0.641683
0001a0 e3 29 4e 40 28 23 f4 bf 18 5d c0 be a7 45 3b 40
       3.2213066 -1.9073229 -0.37571025 2.9261262
0001b0 d0 32 26 c0 93 28 18 40 cc 30 03 3c a4 07 e6 3f
       -2.5968513 2.3774765 0.00800724 1.7971082
0001c0 03 59 0b c0 c6 35 2c c0 5f f0 d1 bf 56 72 96 3f
       -2.1773078 -2.690782 -1.640148 1.1753643
0001d0 56 20 1b 40 1e 84 d9 bf 93 35 97 3f b7 3c 12 40
       2.4238486 -1.6993444 1.1813225 2.2849557
0001e0 8e d4 c8 3e 1a 4f 78 40 cf 26 af 3e a6 3f e1 bf
       0.39224666 3.879828 0.34209296 -1.7597549
0001f0 77 c2 52 3f 69 1a 3a 40 12 81 b2 3f f4 eb d8 3f
       0.8232798 2.907862 1.3945639 1.6947007
000200 ff 50 e9 bf 20 49 14 bf bd c0 87 c0 cd e6 0c c0
       -1.8227843 -0.5792408 -4.2422776 -2.201587
000210 69 6a e5 3f 0a ae 1d 40 90 d9 8f bf 80 2b f6 bf
       1.7923099 2.4637475 -1.123827 -1.9232025
000220 3b 60 fe bf 7b ed 8c c0 32 95 01 bf 0e e5 8b c0
       -1.9873117 -4.4039893 -0.5061828 -4.371711
000230 57 09 0f 3f a3 4a 1e 3f fc 21 7b c0 5b 7d 45 c0
       0.55873626 0.61832637 -3.9239492 -3.085776
000240 c2 89 06 40 03 71 84 40 59 b3 5a 40 89 5b 1d 40
       2.102158 4.1387954 3.4171965 2.4587119
000250 42 c2 3c bf e8 72 0e c0 cd c6 c2 3e db 5c 1c bf
       -0.73733914 -2.2257633 0.38042298 -0.61079186
000260 14 e7 71 40 3e 3e e0 be 91 03 60 40 54 70 1c be
       3.779729 -0.43797487 3.5002177 -0.15277225
000270 a9 92 72 be b3 13 49 40 73 be e6 3e 2f bf 2c 40
       -0.23688759 3.1418273 0.45067176 2.699169
000280 fe 1b 3d 40 c6 de d6 bd c3 22 0c c0 15 9e 01 bf
       2.9548335 -0.104917094 -2.1896217 -0.5063184
000290 8f 4a 00 40 da ff 59 40 50 09 23 bf 34 24 08 40
       2.0045507 3.406241 -0.63686085 2.1272097
0002a0 a4 cf 97 40 b0 7a e6 3f a8 cc 81 40 90 a1 e2 bf
       4.7440968 1.8006191 4.0562325 -1.7705555
0002b0 c9 d9 07 c0 02 08 26 40 b9 b4 99 3e cb ce 37 40
       -2.1226676 2.5942388 0.30020693 2.8719966
0002c0 4d d0 64 40 ff 1c 75 3f e2 df e8 bf 93 37 06 40
       3.5752137 0.9574737 -1.8193324 2.097142
0002d0 a6 a1 31 40 e6 3e f3 bf 49 0b 95 3e 1e 26 02 40
       2.7754912 -1.900357 0.29110172 2.0335765
0002e0 01 e3 90 3f 01 88 0d c0 f2 23 89 c0 1c b2 64 3f
       1.1319276 -2.211426 -4.285638 0.89334273
0002f0 74 cd b5 bf 62 9a d5 bf 2e bd c0 bf 51 a1 84 c0
       -1.4203324 -1.6687739 -1.5057733 -4.144692

onnx::Conv_49 f4 [64]
000000 fa 64 5c 3f 25 3e 1c 3f d8 97 02 bd e0 b6 82 c0
       0.8609158 0.61032325 -0.03188309 -4.0848236
000010 5d fe 18 c0 10 6a b0 bf d4 bd 95 3f 51 b8 92 3f
       -2.390525 -1.3782368 1.1698556 1.1462499
000020 fc 28 f1 bd e2 61 d3 be b6 33 48 c0 de 7e 84 be
       -0.11775395 -0.41285616 -3.1281562 -0.25878042
000030 4c 1b 10 40 34 59 1a bf 3e a2 1b bf 48 d0 ba 3e
       2.251666 -0.60292363 -0.60794437 0.3648703
000040 85 c0 b7 3f f2 c6 18 40 ef e4 b6 3f cd 3e 1e 40
       1.4355627 2.3871427 1.4288615 2.472583
000050 bf 61 c4 3e 90 49 9f bf 71 42 0e bf 4c 66 06 40
       0.38355824 -1.2444324 -0.5557013 2.0999937
000060 09 c5 14 c0 d6 81 ad bf 80 c7 95 3b 38 f1 c6 be
       -2.324526 -1.3555248 0.0045709014 -0.3885591
000070 4e 79 6d 3f ff a6 0e c0 f3 32 26 3f 94 b3 38 bf
       0.9276322 -2.2289426 0.6492149 -0.72149014
000080 b4 69 81 bf 3c 7b 10 bf 2d bf 59 bf dc ce 14 bf
       -1.0110383 -0.5643804 -0.85057336 -0.5812814
000090 78 e6 f6 bc 0a 5d 57 3f 70 d2 4a bf 88 a4 12 bf
       -0.030139193 0.8412634 -0.7922735 -0.57282305
0000a0 89 13 e8 bf fc 98 92 bf 84 b1 17 bf 54 1f 09 40
       -1.8130962 -1.1452937 -0.5925524 2.142537
0000b0 f4 e8 9b bf 21 3e 42 40 48 04 aa 3f 4a bc 02 40
       -1.2180467 3.035042 1.3282557 2.0427423
0000c0 04 e6 66 c0 63 05 22 3e 76 cc 8c bf 08 08 83 bf
       -3.607789 0.15822367 -1.0999897 -1.0236826
0000d0 fa bf 9b bf 70 81 04 c0 80 37 45 3d 99 ef f8 bf
       -1.2167962 -2.0704002 0.048148632 -1.9448119
0000e0 76 56 76 c0 3b 13 58 3e cd ab 1f c0 a0 59 1a bf
       -3.8490272 0.21101086 -2.494861 -0.60293007
0000f0 a4 0e 0d bf 3e f6 bd be 14 da d4 3f 55 71 1b 40
       -0.55100465 -0.3710193 1.6629052 2.4287922

onnx::Conv_51 f4 [32, 64, 1]
000000 2c 8c d9 3e 2b fd d8 3d e9 28 0a be b8 51 da bc
       0.42489755 0.10595163 -0.13492168 -0.026650295
000010 41 ab bb bd 32 19 70 be 02 80 b0 3c d1 13 b9 3d
       -0.091635235 -0.23447111 0.021545414 0.09036983
000020 e4 32 42 3e f8 fa 17 3f d3 1f 9e 3d e0 13 59 3e
       0.18964726 0.5936732 0.07720914 0.21198988
000030 4e 05 e6 bd a1 6c eb 3d d2 8b 34 3c f0 32 13 3e
       -0.112314805 0.11495329 0.011019664 0.143749
000040 b4 6d 7e 3e 72 36 93 3e 36 46 dc 3e d8 64 0b 3e
       0.24846536 0.28752476 0.43022317 0.13612688
000050 8b a5 43 3e a4 7c f7 bb b9 a0 a5 3b d7 11 c6 3e
       0.19106118 -0.0075527 0.00505456 0.38685486
000060 35 d5 69 bc 10 30 99 be 29 e9 15 3e f5 74 7c 3d
       -0.014272024 -0.2991948 0.14639725 0.061634976
000070 c9 ab cf 3c eb c1 72 bc 40 28 91 3e cc 6c 65 3e
       0.025350468 -0.014816741 0.2835102 0.22404784
000080 0f 94 3b 3d e8 b7 e9 be 6f a1 55 be e7 99 dd 3d
       0.045795497 -0.45648122 -0.20862363 0.1082037
000090 a2 1b 3c be 59 4d 73 3c a2 06 a1 bb 01 bb af 3d
       -0.18369916 0.014849984 -0.004914121 0.0858059
0000a0 a2 47 a1 3d 0e e1 bf 3e 34 4c 96 3e 43 4a 08 3e
       0.07874991 0.3747639 0.29355013 0.13309579
0000b0 c8 82 de 3e 0f ed 3c be 47 c8 fa bd e7 6e c5 3e
       0.43459153 -0.18449806 -0.12245231 0.38561174
0000c0 f1 fb a1 be b1 6b 96 3e 46 8a d7 3d 71 90 5d 3e
       -0.3163753 0.29379037 0.105244204 0.21637131
0000d0 2c 54 a6 bd d6 40 87 3e 91 39 3c be ee ee 1c be
       -0.08121523 0.26416653 -0.18381335 -0.1532552
0000e0 83 59 ac bc 6d 79 b3 3e c1 4b b7 3e 3c 61 53 3d
       -0.021038776 0.35053578 0.35799983 0.0516064
0000f0 16 f8 6f 3d b1 0f 8a 3c e8 ff b8 bd 34 9f b1 3d
       0.058586203 0.016853185 -0.09033185 0.08672944
000100 c8 a7 da bc 69 ab 35 3e 3f 73 0a be 53 24 c0 be
       -0.026691332 0.17741169 -0.13520525 -0.37527713
000110 4e 58 13 3e 32 7e c9 be 30 41 0d 3e 94 fd 11 3e
       0.14389154 -0.39354092 0.13794398 0.14256889
000120 49 3f 0d bd 6f 89 51 bd cc 14 4f be 89 64 ca 3c
       -0.03448418 -0.051156458 -0.20222777 0.024706142
000130 06 b5 ac bd 6d 0e ba bd 8a 56 a6 3d 27 19 fe 3c
       -0.08432965 -0.09084783 0.08121975 0.031017853
000140 cf 62 0c be 53 72 a4 3c fa 4b e7 3c 38 96 12 3d
       -0.13709567 0.020074045 0.02823447 0.03578779
000150 fd ac 2f bd 84 d6 9b be c7 d2 37 be 52 f5 2c 3c
       -0.042889584 -0.304371 -0.17951499 0.010556536
000160 3b 4c ef 3d 5b 8e 1e ba 42 1b d3 bd d6 b5 e9 bc
       0.11684462 -0.00060484343 -0.103079334 -0.028529089
000170 6f 94 59 3e 6a 24 85 be a6 d1 a6 bd b5 cb 1f be
       0.21248029 -0.26004344 -0.08145456 -0.15605052
000180 90 f6 2f be 10 82 98 be f5 74 c6 3d 2b 8f 71 3e
       -0.171839 -0.2978673 0.096902765 0.2358977
000190 2b 47 9b bd c9 41 fe bd 60 22 1d bd 86 bf 58 be
       -0.075819336 -0.12414891 -0.03836286 -0.2116681
0001a0 37 d2 60 bd a9 18 d8 3c 1d d3 51 bd 0e 62 fb bb
       -0.054887976 0.026378946 -0.051226724 -0.007671601
0001b0 f6 54 00 be 74 95 ad 3d 6f 8b db 3d 87 c2 31 bd
       -0.1253241 0.084757715 0.10719954 -0.043398406
0001c0 59 4f 19 be 11 9f f4 3a 55 b1 43 3e 23 9b d7 3d
       -0.14971675 0.0018663128 0.19110616 0.10527637
0001d0 c5 ed c5 3d 37 d5 cc 3d e8 f8 73 3c 38 02 5e be
       0.096644916 0.10001605 0.014890887 -0.21680534
0001e0 72 17 16 bf 70 8c 16 3d 9a cf 0f be 1b 2b 54 be
       -0.58629525 0.036755025 -0.14044037 -0.20719568
0001f0 32 63 8b bd 94 c4 70 bc 4e 5d 53 3d 20 f7 03 3d
       -0.068060294 -0.014695305 0.051602654 0.0322181
000200 bf ba 61 3d 81 db 00 3e 3d 7d 57 3e a2 08 fd bd
       0.055109736 0.12583734 0.21043868 -0.12355162
000210 12 ae 04 bd ba 3e 85 bd 91 ac c7 bd 25 9f 8f be
       -0.03239257 -0.06506105 -0.09749711 -0.28051105
000220 cb 1a 09 be 96 9d d5 3c 0c 88 f7 bd 27 0a a7 3c
       -0.13389127 0.02607612 -0.12086496 0.020390583
000230 08 c5 17 3d 20 c3 01 bd b4 4b 25 be ff 36 46 3e
       0.037053138 -0.031680226 -0.1614216 0.19356917
000240 6f 9a 43 3e 94 48 f5 3d 62 59 86 3e f7 a2 23 3e
       0.1910188 0.11976734 0.2624007 0.15980135
000250 76 67 28 3e 81 33 b7 3d 13 71 39 bc 3e 4d 67 be
       0.16445717 0.089453705 -0.011318463 -0.2258806
000260 cf fb 73 3d 2f 1f a0 bc 2a f2 35 bd 31 ae ba bb
       0.059566315 -0.01954612 -0.0444204 -0.0056970348
000270 eb e3 0f 3c 58 f8 2a 3d df e5 7f 3d 04 15 91 bc
       0.008782367 0.041740745 0.06247508 -0.017710216
000280 62 29 3d bc eb 82 33 bd 32 a6 ca 3d b4 d8 65 bd
       -0.011545511 -0.043826025 0.098949805 -0.056114867
000290 08 76 31 be 7d f4 1e 3d 6c 07 2a be 92 79 e5 bd
       -0.17330182 0.03880738 -0.16604394 -0.11204828
0002a0 72 6a ab be cb 44 02 3b 0d e9 94 3c e3 13 da bd
       -0.3347965 0.001987743 0.018177534 -0.10648324
0002b0 b1 81 a5 bd 80 d5 af 3d 78 5c 1e be d1 a8 ac 3d
       -0.08081377 0.08585644 -0.15464962 0.08430637
0002c0 4d a1 b0 be ab 79 21 bd 35 5e 68 bd 2e a4 0d be
       -0.34498063 -0.039422672 -0.056730468 -0.13832161
0002d0 bf 29 2a be d7 28 b6 bc 4a 0f 00 bf 95 47 1b 3e
       -0.16617487 -0.02223627 -0.5002333 0.15164025
0002e0 1d 2a 6f be d4 de 99 bd bc 54 27 3d eb 0a b2 3d
       -0.23355909 -0.07513204 0.040852293 0.08693489
0002f0 e4 22 1b bc 56 8f 55 bd 52 99 69 be 98 51 a6 bd
       -0.009468768 -0.05213865 -0.22812393 -0.081210315
000300 db ed 1d 3e a7 0e 0c be 64 1f eb 3d 42 0d 07 bd
       0.15422766 -0.13677464 0.11480597 -0.032971628
000310 f4 76 2a be 58 4b 20 be f2 28 36 be 40 56 d6 bc
       -0.1664694 -0.15653741 -0.17789057 -0.026164174
000320 73 04 7b 3e da 8e e7 3d d9 c1 ec 3d 69 7a 16 be
       0.24513416 0.11306544 0.11560411 -0.14695133
000330 5a 9b 0f 3e 0c ba 42 be 38 f2 a4 3c 27 78 5e 3e
       0.14024106 -0.19016284 0.02013503 0.21725522
000340 34 e9 10 be ca 68 13 3e d3 47 61 bd 1d da 08 3d
       -0.1415146 0.14395443 -0.055000138 0.033411134
000350 f4 c6 84 bc c8 33 1a 3e f5 13 0f be 71 0e c8 be
       -0.01620815 0.15058815 -0.13972457 -0.39073518
000360 87 b0 ae 3b db 4f 43 ba 4f cd 95 bb 04 48 5e be
       0.0053311023 -0.0007450559 -0.004571594 -0.2170716
000370 80 cb e0 3d ca 3b 1f 3e 62 f6 2a 3e a1 db 46 3e
       0.109763145 0.15550151 0.1669555 0.1941972
000380 6d 2c 5f be 8d 97 df 3d d0 b5 25 3e 40 25 29 be
       -0.21794291 0.10917578 0.16182637 -0.16518116
000390 c1 a1 e0 3b fe 89 b7 bd d9 8a 09 bf ee c8 83 be
       0.00685522 -0.08961867 -0.5372749 -0.25739235
0003a0 0d c0 7c 3d 25 8b c0 be d4 4d 16 3e 07 e5 41 3d
       0.06170659 -0.3760616 0.14678127 0.047337558
0003b0 07 05 ca bd 2d 79 26 3e a3 50 c4 3d b3 8b 92 39
       -0.0986424 0.16257162 0.09585693 0.00027951374
0003c0 0c 03 59 3e db 2a 7c be a4 6a 4e 3b 19 87 ff 3c
       0.21192569 -0.24625723 0.0031496668 0.03119235
0003d0 6e f0 bb 3c 6e f1 8a bc 88 70 4f be 57 ce 8d 3d
       0.022941794 -0.016960826 -0.20257771 0.06924122
0003e0 64 48 a5 3d fd 07 96 3d 2f dd f8 3b 6c fd 9c bd
       0.08070448 0.073257424 0.0075947265 -0.07665524
0003f0 f5 0b 20 bc 73 88 8a bc d1 be 74 3d 95 52 b7 3c
       -0.009768476 -0.016910767 0.05975229 0.022378245

onnx::Conv_52 f4 [32]
000000 f8 7a 12 c0 9e 98 61 3f 00 ac 32 3f aa 41 dc 3d
       -2.2887554 0.881235 0.697937 0.10754712
000010 81 68 ad 3e d8 da bd 3c 4a 40 40 bf 04 c7 6a bf
       0.33868793 0.023175642 -0.750981 -0.91709924
000020 68 92 ff be 78 10 c5 3f 54 88 28 40 b0 92 a3 bf
       -0.49916387 1.5395651 2.6333208 -1.277914
000030 d2 64 a1 3f 1e 05 95 bf 50 8b 81 3f 2c 9d 17 3e
       1.2608893 -1.1642187 1.012064 0.1480605
000040 e6 e0 32 c0 67 72 23 3f 6b e3 bc 3e 64 93 30 be
       -2.7949767 0.6384644 0.36892256 -0.17243725
000050 53 a3 7d bf 83 f7 d9 bf a6 a8 fc 3e 38 0b 04 40
       -0.9907734 -1.702866 0.4934742 2.0631847
000060 34 4d 9d 3f da 9a 33 bf f0 fe 3f 3f 92 1d 92 be
       1.2289186 -0.7015816 0.7499838 -0.28538185
000070 72 31 04 3f f0 e8 1e 3f ab 93 12 c0 04 e0 29 bf
       0.5163795 0.62074184 -2.290263 -0.66357446

onnx::Conv_54 f4 [16, 32, 1]
000000 fa 05 35 3f 85 1e 43 be ab 19 94 be 0c ad f0 be
       0.70712245 -0.19054611 -0.28925833 -0.47007024
000010 1c 15 1c bf 5d f2 84 bf 8b 92 8a 3e f7 2f 20 3f
       -0.6096971 -1.0386463 0.27064928 0.6257319
000020 2e 2a 54 3f a0 bf b5 3d c1 23 fb be 91 ac 3a bf
       0.8287686 0.0887444 -0.49050716 -0.72919565
000030 5c eb 87 bf 56 3b f7 3e c0 91 35 bf ce 8c 1a 3f
       -1.0618701 0.48287457 -0.7092552 0.603711
000040 c4 d7 6a 3e 74 80 98 bd 25 1d 0e bf 1b 65 47 3e
       0.2293387 -0.074463755 -0.5551322 0.19472162
000050 30 a3 0f 3f 55 b9 b0 be 20 b1 b2 3e 88 7c 61 3e
       0.5610838 -0.34516397 0.3490076 0.22020161
000060 9e ac 91 3d 8d 17 e8 be c7 31 a6 bd 2b 11 2e bf
       0.07113002 -0.45330468 -0.08114963 -0.67994946
000070 82 29 2a 3d 3d 6d ca bc 35 86 4b bf 49 2a 7f be
       0.04154349 -0.024710292 -0.7950166 -0.24918474
000080 10 b2 9f 3e e0 85 cb bd 29 46 20 3f 58 76 36 be
       0.31190538 -0.09937644 0.62607056 -0.17818582
000090 ff 4b a8 3e e0 81 fe be 08 d3 aa bd 88 7d 14 be
       0.3287048 -0.49708462 -0.08341032 -0.14501011
0000a0 33 83 2f bc e4 33 cf be a3 31 89 bf 32 a6 ba bd
       -0.010712433 -0.40469277 -1.0718273 -0.091137305
0000b0 e8 d4 2f bf 0f 09 e2 bd 02 b4 1f 3f fe 17 60 bf
       -0.68684244 -0.11036884 0.62384045 -0.8753661
0000c0 14 4b 1a 3e 76 e8 8d be 1a be 08 3e 15 23 8b 3e
       0.15067703 -0.27716416 0.13353768 0.27175203
0000d0 a0 31 8b 3e 3f 47 82 bd cc d1 ec 3e 32 cf 2c 3e
       0.27186298 -0.06361245 0.46253812 0.16875914
0000e0 96 68 69 bf 66 38 51 3d 77 9c 49 bf 4c d5 f1 be
       -0.9117521 0.051079176 -0.7875437 -0.47233045
0000f0 ca 18 35 bf 61 32 b0 3e 97 75 13 3f 27 8a 2e 3f
       -0.7074095 0.34413436 0.576013 0.68179554
000100 ec 12 bf 3e ad ae f6 3e 0d ac 98 3e 94 c5 49 3f
       0.37319124 0.48180142 0.29818764 0.78817105
000110 a5 f9 70 bf 39 5e 6a be 50 f1 fa 3d 84 5a 54 bf
       -0.9413093 -0.22887506 0.12253058 -0.82950616
000120 81 40 ba be 40 eb 6f bd 5f 16 2d 3f 6b 69 89 be
       -0.36377338 -0.05857396 0.6761226 -0.2683824
000130 c0 d6 ab be 19 f8 30 bf f8 f3 a9 bd 5a 75 13 bf
       -0.3356228 -0.69128567 -0.082984865 -0.5760094
000140 d2 ef 8e 3f aa 64 52 3f 59 ae 09 bf 0c fb 9e 3e
       1.1166937 0.8218485 -0.5378166 0.3105091
000150 dc 16 67 bc 34 6c bb be 9d 85 31 3e 96 fb ad be
       -0.014104571 -0.3660599 0.17336126 -0.33981007
000160 06 a5 51 3d 95 dd 99 be 01 82 17 3f 82 66 db be
       0.05118277 -0.30051866 0.59182745 -0.42851645
000170 56 92 de 3e 15 4d 44 be 4a 82 6a 3f 84 4b 77 bd
       0.4347102 -0.1917003 0.91605055 -0.06037475
000180 c3 7f 20 3f e8 8c 84 bf 5c e3 be 3e 9e d4 85 bd
       0.6269495 -1.0355501 0.37282836 -0.06534694
000190 a7 8b 01 bf 12 1d 8e be 9a 00 2b bf 6e 5d 21 bc
       -0.5060372 -0.27756554 -0.6679779 -0.0098489355
0001a0 d4 dc 3d bf 1e d4 3f 3f 0c 2f af bf fb 61 e6 3e
       -0.7416508 0.7493304 -1.3686233 0.44996628
0001b0 d5 2c a0 bf 3a c0 3b 3d 1c 40 f8 3d 55 66 12 3f
       -1.2513682 0.04583762 0.12121603 0.57187396
0001c0 81 65 b7 be 80 04 8a bf f8 6d 55 3f 11 2c 7f be
       -0.3581963 -1.0782623 0.83370924 -0.24919154
0001d0 3f ec cb be f2 8f 52 bf 32 6b 07 3f c2 95 96 3f
       -0.3982868 -0.82250893 0.5289794 1.1764452
0001e0 4e cb 61 3f ff fc a0 3e f2 41 f4 3e d0 68 15 bf
       0.88200843 0.3144302 0.47706562 -0.58363056
0001f0 55 6d dc 3d 56 ef 44 3f c2 c3 33 3f c2 e5 4d bf
       0.10763041 0.769277 0.7022058 -0.8042871
000200 37 53 13 3f a2 5e 39 3f cc 15 a5 3e f9 1a 55 be
       0.5754885 0.72410023 0.32243192 -0.2081107
000210 d0 b5 fe be 87 22 02 be 75 c7 06 bf 4e 14 27 3e
       -0.49748087 -0.12708484 -0.526481 0.1631634
000220 bd a8 92 bd 27 7c e6 be 5b 12 f8 bd a5 75 da bd
       -0.071610905 -0.45016596 -0.12112876 -0.1066697
000230 62 dc c9 3e 2b 6d a0 be bd 66 49 3e 2b 3b 84 3e
       0.3942595 -0.3133329 0.19668098 0.25826392
000240 f8 99 b5 3e 46 03 bf be 1e cb 38 bf ab 66 d9 be
       0.3546903 -0.37307185 -0.7218493 -0.42461142
000250 7d 92 02 3e 5f 59 24 3f bb 7f 90 3c 5c cb 1e 3e
       0.12751193 0.6419887 0.017639032 0.15507263
000260 57 bd 84 bf 8a a3 26 3f f7 75 00 bf 14 23 f2 3e
       -1.0370282 0.6509329 -0.5018 0.47292387
000270 e4 e4 09 3f 11 50 82 bf 75 41 de 3d 3f 40 df bd
       0.53864884 -1.0180684 0.10852329 -0.10900926
000280 98 0c 36 3f 13 c0 ce be 1e 72 0d bf f6 e9 ce be
       0.71112967 -0.40380916 -0.55252254 -0.40412873
000290 51 f6 1f 3f 98 e0 be 3e 9c bb fe be 6a 15 aa 3e
       0.62485224 0.37280726 -0.4975251 0.33219463
0002a0 81 9b 35 bf b2 f2 7a bf d4 b4 8d bd 5e 88 5b 3f
       -0.70940405 -0.98026574 -0.06919256 0.85754955
0002b0 ef 25 4e be 71 ca 36 be 33 1c 73 3e 79 14 84 be
       -0.20131658 -0.17850663 0.23741226 -0.2579687
0002c0 f9 1b 1e 3f c8 09 88 be 31 0b b4 be 07 a8 1c 3e
       0.6176143 -0.26569963 -0.35164788 0.15298472
0002d0 dd 1e 97 be 76 80 c1 3e 3a 75 50 3e 5d 48 28 bf
       -0.29515734 0.3779332 0.20357218 -0.6573542
0002e0 e1 6a 49 be 81 7e 81 3d b5 71 53 3f 6d 30 40 3b
       -0.19669677 0.06322957 0.8259538 0.002932574
0002f0 68 27 11 3e 6c 74 0e be ae c9 0b 3e ae ce 9f 3e
       0.14175189 -0.13911599 0.13651153 0.31212372
000300 dc 7b 7a 3f 35 50 55 bf 2f 7e e3 bc 3f 23 36 bf
       0.97845244 -0.8332551 -0.02777013 -0.7114753
000310 fa 43 b1 3c 22 ec 25 bf 1e 3d 9a bd 27 ba 08 bf
       0.021638859 -0.64813435 -0.075311884 -0.53409046
000320 44 2d 2f 3f 9d 9b 02 3e 3b 53 a0 be 9a 9a d7 3e
       0.68428445 0.12754674 -0.313135 0.4211014
000330 fb c6 01 3f f3 27 16 3f 65 77 66 39 55 db a1 be
       0.50694245 0.5865471 0.00021978987 -0.3161265
000340 b0 f2 07 be 45 de 0c bf dc 7f 16 3f d6 27 eb 3e
       -0.13276172 -0.55026656 0.5878885 0.4592883
000350 3f 8d 34 be cd de a0 be 11 0a d6 be 46 a3 59 3d
       -0.17632006 -0.31419984 -0.41804555 0.053134225
000360 d1 12 54 3f be 02 41 3f 59 ec 93 be 94 72 18 bd
       0.8284121 0.7539481 -0.28891256 -0.037218645
000370 f8 c7 24 3e 3a 6a 04 3f 05 a9 a1 3e c9 6d 63 3e
       0.16091907 0.5172459 0.31574264 0.22209848
000380 74 cd ec 3e 6f 65 3b bd 5b 9f f9 be fd f1 09 bf
       0.46250498 -0.04575103 -0.4875439 -0.5388487
000390 1c 5b 0a 3f 24 ca 6e 3e 0c 8e ae bd f3 fd c2 3e
       0.5404527 0.23319298 -0.08523187 0.38084373
0003a0 92 91 bb be a7 c4 cf 3e a9 3c 52 3f e4 02 52 3f
       -0.366345 0.4057972 0.8212381 0.8203566
0003b0 f9 51 20 bf f8 f7 48 3f e5 c3 b8 3e 2c da bb bb
       -0.6262508 0.7850337 0.36086956 -0.005732795
0003c0 e0 75 6f 3f ce f9 dd be 95 1c 7b 3e af 92 d4 3e
       0.9353924 -0.43354648 0.24522622 0.4151816
0003d0 58 99 1e be 57 45 80 3f b8 3f 5f bd da 2e ff be
       -0.15488183 1.0021161 -0.054504126 -0.49840432
0003e0 85 91 59 3f 24 a4 84 3e 53 13 71 3e 7b 9b d1 3d
       0.8498767 0.2590648 0.23542528 0.10234734
0003f0 af b5 cd bd 74 70 87 be 11 46 c2 3e d1 6c 30 bf
       -0.10044419 -0.26452982 0.3794408 -0.6891604

onnx::Conv_55 f4 [16]
000000 00 df c3 3f 1b aa 9f 3f 51 f6 8f 3f be 4d b9 3f
       1.5302429 1.2473787 1.1247045 1.447685
000010 ef e5 53 3f 06 56 21 3f 80 10 31 bf 0a 0b 07 c0
       0.82772726 0.63021886 -0.691658 -2.1100488
000020 fd 96 28 3f 91 ae 33 40 af c4 00 40 0a 9d 01 3f
       0.6585539 2.8075297 2.0120046 0.5063025
000030 23 53 82 3f 38 7d a1 3f 9e 29 d7 3f 1c 52 ab 3f
       1.0181621 1.2616339 1.6809576 1.3384433
