Assets/MyObjects/gesture_model.onnx (onnx, 28470 bytes, 10 tensors)

fc1.weight f4 [64, 63]
00000000: febd 503d 50e3 01be 996a 443d 58d6 32be
00000010: 2dd3 83bc 95e7 56be c5b0 b9bd f3b2 353e
00000020: b81e c83e ac7d 133e 7a55 33bd 4028 dbbd
00000030: e79b 9abd b6c1 563e ff43 c4bc 0356 aebc
00000040: 36f5 afbc ec76 e83d a764 353d 7e6c a9bd
00000050: 9cad 27be 4d3d c4bd b95e 4e3c 758c c93c
00000060: 6699 abbd 08cc e6bd fa45 cbbd 25f2 08bb
00000070: 3ad4 8d3d 1943 cb3e ebfc 313d 4af4 21be
00000080: c634 3fbe 8502 52bd 966b 603e 3701 08be
00000090: ded4 89bd 63a3 e03d 8540 493e f5c3 2c3d
000000a0: 64ce f53c 0be9 44be 5b15 a7bc 7139 41bd
000000b0: 35a4 f3bc 59bd 853c 1ee9 fabd 49f5 71bd
000000c0: d4e2 00bd d505 7f3d 5464 b03e c491 193d
000000d0: 32c9 27bd a2b7 48be a251 eebd 6603 8c3d
000000e0: 054e ed3c ee94 4a3d daf5 1d3d 8d58 e03d
000000f0: e877 b1bc dad0 903d 19e4 3dbe 3843 ce3c
00000100: 41f3 e43c 8057 f83d 6d13 f7bd dfd3 543b
00000110: 5c88 423e d663 813e ce77 96bd 3ff5 b3bd
00000120: f2a9 33bd 12e4 e03c b19d bebd d73d 50be
00000130: 2df1 b53c e67e d6bd c94e c4bc 30d3 8f3e
00000140: df34 6ebe 087c 50be 516d be3d 70dc 803e
00000150: 385e bb3d f3d4 963a eaeb 593d 8e91 9c3d
00000160: fa31 fcbd 95c7 6f3d 31a5 903e 9446 963d
00000170: 8faa 46be 9c4f 783d e074 00bd d240 20bd
00000180: 88b7 30be a86f 45be 357c 84bd aba5 353e
00000190: 8260 ea3d 16be 8ebe d0d9 d0bd 7ce0 c73d
000001a0: f4bf 423e b600 ae3d de5c 0f3d 6d31 7abd
000001b0: 4711 a63d b2fd 97bd 53da 333e 5027 b03d
000001c0: 4a48 a23d ef45 53be 615b 963d 1e20 643c
000001d0: 3317 69bc ad6e c3bd e3a8 1ebe e833 953c
000001e0: 2950 f83d 8018 8a3d a8bc 95be 4cc3 cabd
000001f0: 1bd7 bdbc 4d33 743e 612f 7bba c9e1 163d
00000200: 9901 8d3c 9cba f63d fc42 013e 04b4 0c3e
00000210: 65dc 07bd 9c6c 1abe 6b18 9dbe eb7e b2bd
00000220: 6f67 02bc 90ca 6a3e b504 343e 6d6f 75bd
00000230: 5317 a23c fa50 1abd ab0b 093d da38 90be
00000240: fb4d 70bd b4a4 b73c da7a 633e fcf6 5d3d
00000250: b678 df3b 2c45 dcbc 82f0 d53d 85ae 123e
00000260: ce64 b93d be0e 463d 6772 e9bd 35af b6be
00000270: 043c d13c 6f55 33bc aa93 2d3e f956 0e3e
00000280: d9b0 48be 3b16 abbc 88e6 a43d eb9d 0c3e
00000290: 1096 57be 0389 43bd f9d3 02bd 132b 1e3e
000002a0: 4e3f a3bc 048f ae3d 1b58 bfbc 712c 063e
000002b0: 4f62 d23d 132d bb3c 802e 913d 42ad 00be
000002c0: 1009 d1be 4d90 2bbd 6ecf 0d3e 49d5 693d
000002d0: b129 313e c797 41be ced1 08bd cd96 5ebc
000002e0: a0ab 3b3e 0765 0abe d406 33be 0181 ac3d
000002f0: 24a8 253e d53f a2bc 9df8 093d a45d 1cbd
00000300: 6cfa a6bc 520f d83d 74e5 b5bd fa6d 07be
00000310: 1edc bbbd f4e3 33bd f2a3 30be 8994 1c3e
00000320: 1fcd c63d efca 913e 290e bd3d 95a0 cf3c
00000330: 6308 483d 6ed5 5abe 7e24 723e 82ee 0a3e
00000340: bb8d 2dbe 720e 47be b0cd e1bc 01b0 5f3b
00000350: 07ce c9bd 8846 c43b 1579 203e c01c 9fbd
00000360: f2f9 7ebe 5122 90bb f404 29bd 612b 92bd
00000370: b9db fe3d c412 953d dc94 a83e 820c 42ba
00000380: 8ce1 5bbc 9c93 37bd b99c 91be acdc a33e
00000390: 3312 f83d b830 b3bd cc98 c7bd b502 acbd
000003a0: 1e39 9b3c 8d6d f7bc ee95 1d3d 9b57 c63d
000003b0: 4d49 31be c843 4fbe 9794 07be 5d0e 91bd
000003c0: b59b 643b fbbd 503d f9a5 9d3e 0207 923e
000003d0: 981c 3e3e c6ed 56bc ae07 0cbe 1209 2ebe
000003e0: 74fd 593e f775 883d 09e1 70bd cfd5 3fbe
000003f0: ffb6 8dbd 4b42 9c3c b2f4 febb 3907 35bd
0.05096244 -0.12684369 0.047953222 -0.17464578 -0.016091907 -0.20986779 -0.09066919 0.17744045
0.39085937 0.14403409 -0.04378269 -0.107010365 -0.07549267 0.20972332 -0.023958204 -0.021281248
-0.02147923 0.113508075 0.044285443 -0.08272646 -0.1637482 -0.09582005 0.012595826 0.024603108
-0.08378868 -0.112693846 -0.09925456 -0.0020896283 0.06925245 0.3969963 0.043454092 -0.15815845
-0.18672475 -0.051271934 0.21916041 -0.13281713 -0.06730054 0.109686635 0.19653518 0.042179067
0.030005641 -0.19229524 -0.020395925 -0.04717392 -0.029741386 0.01632564 -0.12251495 -0.059071813
-0.03146632 0.06226142 0.34451544 0.03749253 -0.04096336 -0.196013 -0.11636664 0.06836586
0.028967867 0.049458437 0.03856454 0.1095439 -0.021663621 0.07071085 -0.18544044 0.025178537
0.027948024 0.12126064 -0.12064252 0.0032474918 0.1899733 0.2527148 -0.0734707 -0.08787011
-0.043863244 0.027452502 -0.09307421 -0.2033609 0.022209728 -0.10473423 -0.023963349 0.2809081
-0.23262356 -0.20359814 0.09298194 0.2516818 0.0914883 0.0011507556 0.0532035 0.0764495
-0.1231422 0.058539946 0.2825103 0.073376805 -0.19401 0.060622796 -0.03136146 -0.039124317
-0.17257512 -0.19280875 -0.06469003 0.17738979 0.11444189 -0.278794 -0.101977944 0.09759614
0.19018537 0.08496229 0.035000674 -0.061082292 0.08108764 -0.074214354 0.17563753 0.08601248
0.07923944 -0.20632146 0.07341648 0.013923673 -0.0142267225 -0.09542594 -0.15494113 0.018213227
0.12124664 0.06742954 -0.29245496 -0.09900531 -0.02317386 0.23847695 -0.000958195 0.03683642
0.017212676 0.12047312 0.12623209 0.13740546 -0.03316917 -0.15080494 -0.30682692 -0.08715614
-0.007959231 0.22928834 0.1757992 -0.059920717 0.019786512 -0.03767488 0.033458393 -0.28168374
-0.058668118 0.022417404 0.22214833 0.05419062 0.00681981 -0.026888452 0.10446264 0.14324386
0.0905243 0.048353903 -0.11398774 -0.35680547 0.025541313 -0.010945662 0.1695086 0.13900365
-0.19598712 -0.020884624 0.08051783 0.13732116 -0.21053338 -0.047738086 -0.031940434 0.15446119
-0.019927647 0.08523372 -0.023357442 0.1310289 0.10272657 0.022848641 0.07088947 -0.12566093
-0.40827227 -0.041885663 0.1384866 0.05708817 0.1730106 -0.18905555 -0.03340321 -0.013585758
0.18327188 -0.13515101 -0.17483073 0.08423043 0.16177422 -0.019805828 0.03368436 -0.03817524
-0.020383082 0.10549797 -0.08881655 -0.13225546 -0.091728434 -0.043918565 -0.1725004 0.15291037
0.097070925 0.2847514 0.092312165 0.025345126 0.048836123 -0.2137048 0.23646733 0.13567546
-0.16948597 -0.19439104 -0.0275639 0.0034132006 -0.0985375 0.0059898533 0.15671189 -0.077691555
-0.24900034 -0.004398622 -0.04126449 -0.0713718 0.124442525 0.0727897 0.3292607 -0.00074023765
-0.013420474 -0.044818506 -0.28439882 0.32004297 0.12112846 -0.08749527 -0.097459406 -0.08398954
0.018948134 -0.030203605 0.038473062 0.09684678 -0.17313118 -0.202407 -0.13240276 -0.07082818
0.0034882848 0.05096243 0.3079069 0.28520972 0.18565595 -0.013118213 -0.13674805 -0.16995648
0.21288091 0.06663125 -0.05880836 -0.18733905 -0.06919669 0.01907458 -0.007780635 -0.04419634

fc1.bias f4 [64]
00000000: d9b9 2e3d fc16 a8bd b72a edbd f3d6 c0bc
00000010: 69df 983d 21bb 393b c8c4 43bd 19f4 ab3c
00000020: c8b5 82bd e444 1fbe e6e2 323c 3002 313e
00000030: 39c7 1e3e d5c4 2e3d 17bd 343c f109 1b3e
00000040: 2e59 87bd eb9c 08bc 46a4 4ebd ac6c afbb
00000050: d2d1 423e 2be6 8dbd 8a85 efbd 3bb1 9cbd
00000060: 144e 153e 58f6 f9bc b166 ac3b 0eca 1cbd
00000070: 17fb 233c 0799 a33d 5f08 ad3c 042f aebd
00000080: 09e6 933b 83dc 7bbd df04 9f3c a050 853d
00000090: 3c1b 3bbc c308 b1bc c1d2 33bc 349a e8bb
000000a0: ac96 803a 52a0 9fbc 3f16 b3bd 4efe 4fbe
000000b0: a026 2abe 5fca fa3c 1c6e 03be 53db dcbb
000000c0: d638 fcb8 8fc8 263e 568e 09be ace5 cebd
000000d0: fa22 893c 4c9b cbba 87ff dabd 9a3b e8bd
000000e0: 1a40 0a3e 3712 6c3b aee4 2cbe 221a cb3c
000000f0: 0a34 f8bb 0131 1fbe 0eb1 04bd 0049 febd
0.042657707 -0.08207509 -0.11580413 -0.023539996 0.07464487 0.0028340297 -0.047795087 0.020990418
-0.06382328 -0.15553623 0.010918355 0.1728599 0.15505685 0.042668182 0.011031411 0.15140511
-0.066088066 -0.008338193 -0.050449632 -0.005353531 0.19025353 -0.06928667 -0.116953924 -0.076509915
0.14580566 -0.030512974 0.005261265 -0.038278632 0.010008595 0.07988172 0.021122156 -0.08505061
0.0045135063 -0.061489593 0.019411502 0.065095186 -0.011420067 -0.021610623 -0.010975541 -0.0070984606
0.0009810529 -0.019485626 -0.087444775 -0.20311853 -0.16616297 0.030614076 -0.12834972 -0.0067400127
-0.00012026883 0.16287445 -0.13433203 -0.101024 0.016740311 -0.0015533953 -0.10693269 -0.11339493
0.13501015 0.00360216 -0.1688411 0.024792735 -0.007574563 -0.15546037 -0.032395415 -0.124162674

fc2.weight f4 [32, 64]
00000000: 325c 81ba f607 1ebe 7d1a 06bc f982 ad3e
00000010: 0737 38bc 188f 593f f75f c53b 661b bdbb
00000020: 4ca0 a0bc db41 c538 3957 353e c749 073c
00000030: 350e 6e3c 43a5 2fbe c854 dbbc 4e3b 253c
00000040: 6f20 843d 0481 ba3d 9e5d 933c dd91 94be
00000050: 44bb df3b 3761 adbc 5e3c 293c 66cc 2bbd
00000060: c362 a1bc 0a0d 033f bc3c 2b3f 826a 81be
00000070: ef17 1a3f 3652 5b3d 7f4d a0be 274e a03c
00000080: 6bf1 64bd 9e23 f4bc 2097 2dbd 71c1 233d
00000090: 9939 29be de46 04bd 2169 153c ab42 26be
000000a0: ef60 5b3d fc49 17bc 28e7 723e c946 043d
000000b0: 2207 ecbb b5a2 cebe 223f 62bc 9acb 683d
000000c0: 7897 29bf 40eb 983c e7e9 f6bb e3b1 90bc
000000d0: ac6d 933f 2a6f d13d 9b79 ce3c 9fec a83d
000000e0: 4207 f5bc f907 57bd 41fa 90bc 8cb9 ce3c
000000f0: f8d2 163d 8f33 da3b 15b3 c83a b6a7 47bb
00000100: e724 203e c713 ebbd 6a6a a7be a249 b93d
00000110: e265 023e a671 203d c8f7 87be c2eb 0bbe
00000120: 34cb dd3d f7d5 b9bd f3ec ee3d 6a9b 8a3d
00000130: 19cc 123d ba8c af3d 92b9 58bd 5012 763e
00000140: c02b 83bd 0c62 d73c 123d 23be a4ed acbc
00000150: 17d7 a23d ac80 49bc 8c0c 27be 10a5 0bbe
00000160: dd32 0d3e 3f9e 82bc b449 b5bd 7e25 0ebd
00000170: fa22 9d3d 4c1d 4b3e 8b7b 983d 9a8a b1bc
00000180: 3791 403e 1baa d33c acf0 a43d 656d a5bc
00000190: f8f2 6a39 3ddc cabd 8cbe 0ebe 9462 50bd
000001a0: 1bf6 033e 034c 26bd 079e 30bc c291 65bd
000001b0: d42b 63bd 604e 0b3d aacb a2bd ec00 cb3c
000001c0: 8e54 093d e638 b83e 8de3 31be 3adb 8cbd
000001d0: 7de0 4c3d e0b6 16be 6e0a a7be 0b5d c3bd
000001e0: 1540 f83d a9ef 39bc 04df 7dbe 913c e63d
000001f0: 0b0d 0dbe ecf1 26be 9fe5 9b3d 39de 0cbe
00000200: f33a 8f3c 3734 123e adc6 dbbc 9ff4 b4be
00000210: eb8c 143d 2cb5 51bf 5e77 e33c d78f 83bd
00000220: 8430 c4bc ce79 f1bb e242 01be d51f 0f3c
00000230: 969c 18bd 481b 293e 7a77 2fbd 4eaa ebb9
00000240: 1301 b8bc df62 dbbd 14db 51bb d769 2f3e
00000250: a699 28bb bd78 b93d f503 113d b3aa 603c
00000260: ee9b a53c 656d f7be 18aa 18bf 4e63 663e
00000270: fd16 11bf 9434 18bd 23b7 a03e c58c 88bc
00000280: 5a0d 903d da8a 8b3c f9ae 8e3b 0236 893d
00000290: d95a 5d3e a834 f03c d29a b23a 34f1 2e3e
000002a0: 351e 47bc 3cd9 63bc b9f3 74be a6a3 793c
000002b0: b684 90bc 77e4 ce3e 8b83 b2bb 1f67 a3bd
000002c0: a4ed 243f 77a6 9ebb 32e4 91bc eaf2 273d
000002d0: dc03 81bf ea7e f2bd d634 f7bc eb52 3abd
000002e0: c413 623c 85c6 8f3a 82cc a03c 62c4 983b
000002f0: 5d85 6bbd b306 4e3c 0b63 6bbc 582c a43c
00000300: 6d2a 30bd 6b05 9a3d 811a 943e d823 8cbd
00000310: 7578 2abe debf ed3d 32c3 303e cba6 9a3d
00000320: 0d9c 98bd d94e 1a3e f9b8 c4bd 641a b4bd
00000330: 8729 8cbd 0001 17bb aa97 6e3c 2608 9cbe
00000340: f24e 5a3d 7bfa 4dbd 5b60 b93d b27b 5ebd
00000350: d5fc 43be 9e62 0ebe a899 113e b9e1 f53d
00000360: 1a33 49be 9e8c 7f3d 7cbf c7bb 573c 853d
00000370: bf26 a4bd 9bc4 8ebe be61 933c d32e 3dbd
00000380: dbd8 f3bd 01f6 203c d31e 46be 425a 1dbd
00000390: 9af2 223d cafb 033e c369 183e 90f5 f6bd
000003a0: a0de cbbd c397 d83d dd4c 1bbc 3384 233d
000003b0: ec89 023e cd3f 89bd a8e5 6b3e 1a53 423d
000003c0: 9e12 8e3c 2c5d d7be f1f6 073e 29ce 9f3d
000003d0: d8c0 e0bc 46fe 093e 1cd5 a23e d11c 0b3e
000003e0: 6120 26be 89c6 99bd 415b 603e a1da 82be
000003f0: 7137 983d 7697 cf3d 3c62 42bd 9b0e 473e
-0.0009869395 -0.15432724 -0.008185026 0.33888987 -0.011243588 0.8498397 0.006023403 -0.0057710884
-0.019607686 9.4059586e-05 0.17709054 0.008257336 0.014529754 -0.17152886 -0.026773825 0.01008494
0.06451499 0.09106639 0.017988976 -0.29017535 0.0068277437 -0.02116452 0.010329334 -0.041942976
-0.019700414 0.5119177 0.6688955 -0.25276572 0.6019277 0.0535452 -0.31309125 0.019568516
-0.055894297 -0.02980214 -0.042380452 0.039979402 -0.16525878 -0.032294147 0.009119303 -0.1623637
0.05355924 -0.009233948 0.23720992 0.03229407 -0.0072029987 -0.4035851 -0.013808997 0.056834795
-0.6624675 0.018666863 -0.0075352076 -0.017662948 1.1517844 0.10226281 0.02520447 0.08248257
-0.029910687 -0.052497838 -0.017697455 0.02523496 0.03682229 0.0066589783 0.001531216 -0.0030464954
0.15639077 -0.114783816 -0.32698375 0.090472475 0.12734178 0.039170884 -0.2655623 -0.13664153
0.108297735 -0.09074014 0.11666288 0.06767924 0.035839174 0.08571763 -0.05291135 0.24030423
-0.06404829 0.02629187 -0.15941265 -0.02110941 0.079511814 -0.012298744 -0.1631338 -0.13637185
0.13788934 -0.015944598 -0.088519484 -0.034703724 0.07672687 0.19835395 0.07445439 -0.021672536
0.18805395 0.025837949 0.08053717 -0.020193765 0.00022406492 -0.09905288 -0.13939875 -0.05087526
0.1288685 -0.040599834 -0.010779864 -0.05604721 -0.05546172 0.03401029 -0.07949002 0.024780713
0.033527903 0.3598091 -0.1737196 -0.06877752 0.050018776 -0.14718199 -0.32625145 -0.09539231
0.12121598 -0.011348643 -0.24792105 0.11242021 -0.13774507 -0.16303223 0.07612156 -0.13756646
0.017484164 0.14277731 -0.026828134 -0.3534288 0.036267202 -0.8191707 0.02776688 -0.0642392
-0.023948915 -0.0073692566 -0.1262317 0.008735617 -0.037258707 0.16514313 -0.04283855 -0.0004494958
-0.02246145 -0.107122175 -0.003202145 0.17130218 -0.0025726347 0.09056232 0.035404164 0.013712573
0.020215955 -0.4832565 -0.5963454 0.22498819 -0.566757 -0.037159517 0.31389722 -0.016668687
0.070337966 0.017033983 0.0043543545 0.06699754 0.21616687 0.029321983 0.0013626462 0.17084199
-0.012153198 -0.013906773 -0.23921098 0.015236771 -0.017641407 0.4040868 -0.00544781 -0.07978653
0.6442511 -0.0048416215 -0.017809007 0.041003145 -1.0079303 -0.11840613 -0.030176561 -0.045489233
0.013798658 0.0010969198 0.019628767 0.0046620825 -0.057500232 0.012574839 -0.014366875 0.020040676
-0.04300921 0.07520565 0.2892647 -0.06842774 -0.16647513 0.116088614 0.17261961 0.075513445
-0.07451639 0.1506914 -0.09605593 -0.08794096 -0.06843858 -0.0023041368 0.014562527 -0.30474967
0.053297944 -0.050287705 0.090515815 -0.054317184 -0.19139417 -0.13904807 0.14218771 0.12005944
-0.196484 0.062389962 -0.0060958248 0.065056495 -0.08015203 -0.27884373 0.017990943 -0.046187233
-0.11906596 0.009824277 -0.19347696 -0.038416155 0.039782144 0.12889019 0.14884095 -0.12058556
-0.09954572 0.10575821 -0.009478775 0.039920997 0.12747926 -0.06701622 0.23036826 0.047442533
0.017342862 -0.42063272 0.13277794 0.07802994 -0.027435705 0.13475904 0.31803215 0.13585211
-0.16223289 -0.07508571 0.2190981 -0.25557426 0.074324496 0.10136311 -0.047456965 0.19439165

fc2.bias f4 [32]
00000000: 1c69 c43c 04e5 283d 64ee 993b 3465 0cbd
00000010: e3a9 f33a 6f4c 483c 5f0a d73c 7c87 a5bb
00000020: 5e39 99bc 74d5 1b3c 8af7 df3b 6904 3abd
00000030: 142b cb3c 6cb4 b7bc 3adc 0abd ada6 71bc
00000040: d9d1 01bd 81f7 523d a38e 16bd 0ca8 d93c
00000050: 10d4 063d e2ae 0abc dfba 943c 0f10 65bd
00000060: 73c2 0bbd ca9d 783d dcbc 933c bb72 11bd
00000070: 842d fabc 4a1e c8bc aa1d 32bd 2377 d2bc
0.023975901 0.04123403 0.004697608 -0.034276202 0.0018590059 0.012225254 0.026250063 -0.0050515514
-0.018704113 0.00951134 0.006834929 -0.045414362 0.024800815 -0.022424899 -0.03390143 -0.014749211
-0.031694267 0.05150557 -0.036757123 0.026569389 0.032917082 -0.008464547 0.018155513 -0.055923518
-0.034120988 0.060697354 0.018034391 -0.035509806 -0.030539282 -0.024428505 -0.04348532 -0.025691574

fc3.weight f4 [16, 32]
00000000: be3a bebc c3e9 f2bc c5f4 573d ca90 103c
00000010: d234 f53b d5f9 59bc 089f dcbe f89e f53e
00000020: 2e30 62ba 0ba5 473c 9e60 40ba 8335 033d
00000030: a84c c3be dbd1 e13e 5356 b83c 345e d93e
00000040: c17d cd3e 5a1e f0bc 2b87 c43e 2db8 243d
00000050: 9284 c83c 3d5d 793c 8a4b a33b 24f7 cdbc
00000060: 5b93 e13e 0823 9a3c d45e c9be 6652 723c
00000070: 8a2e d53b d738 49bd e595 4dbc f45e e33e
00000080: 6f1a febe b622 71bb bd0c f23e 1c5f db3c
00000090: 1cb2 d43e 21b0 09bf b0b4 273c 7f19 babc
000000a0: 0b47 e53e cc47 e7be 964c d43e 0be1 4cbc
000000b0: a075 bf3b 9c59 4fbc f9c7 4ebc 8794 94bc
000000c0: d86a 64bc ea13 3e3c 5d16 f2bb 8ec0 ff3b
000000d0: eb74 aabc 2f34 d7be d208 e7be ea9e 8bbb
000000e0: 3771 3f3c 6394 86bc 737f 6abc 4f53 123a
000000f0: 52c7 6fbc b056 fe3e 2964 0cbd e955 b3bc
00000100: beeb 023c 8f58 62be cc5c a3bb 108f 573e
00000110: c0cb 943b 3b4d fd3b 0753 bc39 9b87 2c3d
00000120: 0bfa 41bd 6d57 ebbc 9a58 203c 18f2 613e
00000130: 81d8 283c 8e75 86bb 9982 233e bc3a 5ebc
00000140: 6439 aeb9 7968 7cbe 33c7 aabd 456f 75be
00000150: 1fa2 7dbe 8bdc 9bbc a7cc cc3c 8b78 473e
00000160: 9929 d8bc 5c38 69be 3477 80bc 52fc 973e
00000170: e946 883e 9a67 4abb d7c7 523e 97d6 ae3c
00000180: 7ba2 19bd 0a80 97bc 1954 f93c 0c37 bf3a
00000190: 1aa4 4e3c 025d 9e3b 2b4a babe e64e bf3e
000001a0: 46b4 fbba 4e6a 193c 6df4 26bc 9741 33bc
000001b0: 8f07 cabe 98ae b03e 17bd 81bc ffff a13e
000001c0: da18 ce3e 99e8 c5bc 79fc 9c3e 27ed 863c
000001d0: 6697 7fbc 2243 e03c c41d a9ba b223 be3b
000001e0: a3ba bd3e ba5c 73bb d1f8 d7be 8dc1 8a3a
000001f0: 0148 8b3c 7cfc abbc 914c 013b e3ef a93e
00000200: 26de 1e3f 34ab 8ebc 1281 0abf 601e d13c
00000210: 233f 00bf 514b 1a3f 7247 283a eea4 8f3d
00000220: d652 13bf d790 0c3f 6e73 0abf 3695 763b
00000230: cc25 b0bc 4562 81bb 575b b23a d098 febc
00000240: acec ad3c f464 e23b cf8c a03c d869 97bc
00000250: 1b67 273d d2b9 0b3f 3793 153f eb2c cd3b
00000260: 691f 793d a43a 0c3c 1e85 383d 63be c33b
00000270: d657 a83b aadb 02bf 38bd 6d3c ae3e 86ba
00000280: 46ce eabc 77d3 323e 06ce 84bb c788 3cbe
00000290: 2c7f 02bd d92d cb3c c30d 72bd 571b 953d
000002a0: bd4b 9b3d 4390 8d3d 6b76 a3bb d7e7 40be
000002b0: 370d c8bc c2b6 ca3d 82f3 4bbe d8a7 9f3d
000002c0: 402f e23c 735b 8d3e a20e b73c 9e59 913e
000002d0: 3950 a83e c506 c2bb 838f 7ebc ec5a 88be
000002e0: 9811 ccbc 881d 6e3e 7012 a5bd e4b4 92be
000002f0: 3d92 90be b960 063d 7af8 64be 3337 ae3d
00000300: 6ea4 33bd 0d1d 813e b127 f6bb 3ba9 50be
00000310: e127 043c 616b f03c 60df 0abd 303e 6bbd
00000320: 5bcf b4bb fe96 aebb d5fe 0cbb ce38 6dbe
00000330: 9e6c 023d 3d61 2abc 00d5 85be 6fd9 503d
00000340: ea15 743c 6bc9 be3e 67fd 04bc 0161 773e
00000350: b31f 793e c084 833c 37c9 59bd a349 8abe
00000360: ffba 26bc e983 603e 6141 4c3c 1f86 58be
00000370: cd23 46be 07fd 84bc 1008 7fbe 9654 633c
00000380: 42b8 243d b172 383e 7b0e 823b 6689 44be
00000390: 9c2f 10bd 8865 163d bc4a c1bd aaa8 913d
000003a0: 5dc9 45bd 0f24 02bb 7cbd 2ebd df0f 3bbe
000003b0: 90d5 cebd 517d 203e 753f 41be ae04 b63d
000003c0: 09e8 173d da6b 413e da86 1e3d cf9c 263e
000003d0: 3f70 1f3e 3521 833a c05b 9c3a b89c 74be
000003e0: 07ff d43d 7451 4e3e 2755 6fbd d026 71be
000003f0: d16d 6ebe 874f d3bc a66f 4cbe 96d3 123d
-0.02322137 -0.029652482 0.052723665 0.008823583 0.0074831033 -0.0133041935 -0.4309008 0.47972846
-0.0008628395 0.012185345 -0.0007338616 0.032033455 -0.38144422 0.4410542 0.0225021 0.42454684
0.40135005 -0.029311348 0.38384375 0.040214706 0.024477277 0.015219984 0.00498337 -0.02514226
0.44057736 0.018815532 -0.3933016 0.014790153 0.006505792 -0.049126472 -0.012547945 0.4440838
-0.49629542 -0.003679437 0.47275344 0.02677875 0.41542137 -0.53784376 0.01023595 -0.022717236
0.44780764 -0.45171964 0.4146468 -0.012504826 0.0058428794 -0.012655642 -0.012620919 -0.01813723
-0.013941489 0.011601428 -0.00738792 0.0078049367 -0.020807704 -0.42032 -0.45123917 -0.0042608874
0.011684707 -0.016428178 -0.014312613 0.0005581872 -0.014634924 0.49675512 -0.034275208 -0.021891551
0.007990776 -0.22104095 -0.0049854275 0.21050668 0.0045408905 0.007730154 0.00035920014 0.04212151
-0.0473576 -0.028728211 0.009786749 0.22065008 0.010305525 -0.004103369 0.15967788 -0.013563808
-0.00033230626 -0.24649228 -0.083387755 -0.23968227 -0.24768876 -0.019026062 0.02499993 0.19479577
-0.026387023 -0.22775406 -0.01568184 0.29684693 0.266166 -0.0030884505 0.20584045 0.021342559
-0.03750847 -0.018493671 0.030435609 0.0014588549 0.012612367 0.0048328647 -0.3638471 0.37364882
-0.0019203506 0.009363724 -0.010190112 -0.010940931 -0.39458892 0.34508204 -0.015837235 0.31640622
0.40253335 -0.024158763 0.3066137 0.016470505 -0.015600061 0.027375761 -0.0012902548 0.005802595
0.37056455 -0.0037134127 -0.4218202 0.0010586247 0.017002108 -0.020994417 0.0019729475 0.33190832
0.6205772 -0.01741562 -0.54103196 0.02552718 -0.5009634 0.60271174 0.00064193376 0.0701388
-0.5754827 0.5490851 -0.5408238 0.0037625558 -0.021502398 -0.003948482 0.0013607544 -0.031078726
0.021231018 0.006909007 0.019598393 -0.018483087 0.040869813 0.54580414 0.5842776 0.006261458
0.06082097 0.008558903 0.045048825 0.0059736236 0.005137424 -0.5111643 0.014510445 -0.0010242069
-0.028662812 0.1746348 -0.00405288 -0.18411551 -0.03185956 0.024802135 -0.059095155 0.07280605
0.07582805 0.06912281 -0.0049884818 -0.1883844 -0.024420364 0.098981395 -0.1991711 0.077956855
0.027610421 0.27608833 0.022345845 0.28388685 0.32873705 -0.005921217 -0.015537146 -0.26631868
-0.024910733 0.23253453 -0.08060157 -0.28653634 -0.2823657 0.032807086 -0.22360411 0.08506622
-0.043857984 0.25217476 -0.007512056 -0.20377056 0.0080661485 0.029348077 -0.033904433 -0.057432353
-0.0055178828 -0.0053280583 -0.0021514196 -0.231662 0.031841867 -0.01039916 -0.2613907 0.05098861
0.014897803 0.37263045 -0.008117056 0.24158098 0.24328499 0.016054511 -0.05317041 -0.27009305
-0.010176419 0.2192532 0.012466759 -0.21144913 -0.19349594 -0.016233934 -0.2490542 0.013875147
0.040214784 0.18012501 0.0039690114 -0.19193038 -0.035201654 0.03671792 -0.094380826 0.07112248
-0.048287738 -0.0019857918 -0.042661175 -0.18267773 -0.100993276 0.15672804 -0.18871863 0.08887611
0.03708652 0.18888798 0.038702823 0.16270755 0.15570162 0.0010004403 0.0011929199 -0.23887908
0.10400205 0.2014826 -0.058430817 -0.23549962 -0.23284079 -0.025794758 -0.19964465 0.035846315

fc3.bias f4 [16]
00000000: 9e9c 94bc 83db 0d3d 5646 ae3c 75ff 1ebc
00000010: 133f 2abc ef22 893c 6788 c2bc ebdf 053d
00000020: 98f4 78bb f655 bfbc de2a f73b b0ff 1bbd
00000030: 4e86 af3c 4fd5 f0bc 63ea 4dbb 2568 fb3c
-0.018141087 0.03463317 0.021273773 -0.00970446 -0.010391015 0.01674029 -0.023746682 0.032684248
-0.0037987586 -0.023356419 0.007542952 -0.03808564 0.021426346 -0.029398588 -0.0031420223 0.030689308

fc4.weight f4 [8, 16]
00000000: 5b37 173c 17ed 293f d500 05bc 1a6c 353c
00000010: cb4d 0fbf bfe5 513b 6170 acb9 95c7 78bc
00000020: cae1 45bc 6ae3 15bf 4994 4a3b d521 84bc
00000030: 80b8 04bc 068a 52bc 6a3a 29bf a3db 2b3c
00000040: 720a 383c f3ed 443d 2b42 ce3e 136a a33c
00000050: 3f24 e5bc 51a8 a6be a4f4 b3be 2d5e b9be
00000060: a0cb e1ba c594 01bd e2de b43e 149c d5be
00000070: 5707 b03e 81be 88bb c47d 0abd a3e9 8e3e
00000080: d77d 03bf a8cf 0a3b 0ff6 c63b 63b0 17bf
00000090: 4452 53ba 480d 92bc 23c3 c93b 4e7f 0dbd
000000a0: f8a5 153f f342 263c 4ff3 c43b 45ab 85ba
000000b0: 2554 0f3c 3493 073f f31f 64bb 840f 883c
000000c0: 3670 f73e aa4b d73c 77b6 2dbc 719d 033f
000000d0: 8fb6 10bc 05ab 633c 388e c03c d284 383d
000000e0: 756f 03bf 27d6 24ba 2047 69bc e96b f73b
000000f0: 7ea8 9bbc 087b fabe 3ab3 72bc 9366 00bc
00000100: b2d9 75bc 3c32 33be 41ff 403e 0ba7 0c3c
00000110: 7a27 203e 100e efbd 4ed0 24be d4c4 acbd
00000120: 9378 873c ae10 1f3e d5f5 393e 431c 36be
00000130: 2c95 023e 5e4e 2e3c 9554 373e 246c ee3d
00000140: 6329 37bc 9fd9 e43c 7001 d53e 32a1 303a
00000150: 9245 1bbd 10bc b4be ec0f b4be 6a7b c2be
00000160: f252 a5b7 b2d6 4dbc 13d9 c53e 86bb c0be
00000170: 7753 b33e d318 843c 31ac a3bc 9e46 a03e
00000180: 8135 b3bc afe9 38bf 7a95 1bbc c025 7bba
00000190: fddf 173f d08d bd3c 6280 2f3c 00ab e43b
000001a0: 6095 da3c 1a59 1f3f 6a47 2bbb afb1 f73b
000001b0: 6b79 553c f326 b43b 564d 373f 3ab5 13bc
000001c0: 3dc0 50bd da85 503d 06ba f33e 5a22 3abc
000001d0: db26 26bd 30e1 bbbe 4269 d2be 275f e2be
000001e0: 42d7 d13c 17ad 57bd 2d66 e83e d27e f3be
000001f0: edb2 e03e 7008 d7bc 0d8f 28bd 84b8 c13e
0.009229506 0.66377395 -0.008117874 0.011073137 -0.5597808 0.0032027808 -0.00032890125 -0.015184303
-0.012077758 -0.5855013 0.0030911139 -0.016129414 -0.008100629 -0.01285029 -0.6610476 0.010489377
0.011232959 0.04807849 0.40284857 0.019948041 -0.027971385 -0.3255029 -0.35147583 -0.36204663
-0.0017226823 -0.03163602 0.35326296 -0.4172064 0.343806 -0.0041731005 -0.033811346 0.27912626
-0.5136389 0.0021180902 0.006071813 -0.5925352 -0.000806127 -0.017828599 0.0061572953 -0.034545235
0.58456373 0.010147798 0.00601045 -0.0010198137 0.008748089 0.5295899 -0.0034809082 0.01660896
0.48327798 0.026281197 -0.010602585 0.5141211 -0.008832588 0.013895755 0.023505315 0.045048542
-0.51341945 -0.00062880147 -0.014238149 0.0075507057 -0.019001242 -0.4892199 -0.014813239 -0.007836956
-0.015005516 -0.17499632 0.18847372 0.008584748 0.15640059 -0.11672604 -0.16095087 -0.084359795
0.016536986 0.15533707 0.18160184 -0.17784218 0.12752217 0.010638801 0.17903359 0.1164172
-0.011179301 0.027935801 0.4160266 0.0006737887 -0.037908144 -0.3529973 -0.35168397 -0.37984782
-1.9708157e-05 -0.012563394 0.38642177 -0.3764307 0.35024616 0.016125118 -0.019979568 0.31303877
-0.021876099 -0.7223157 -0.009496087 -0.00095805153 0.59326154 0.02313891 0.010711761 0.0069783926
0.026682556 0.62245333 -0.0026135095 0.0075590233 0.013029437 0.005497807 0.7160238 -0.009015376
-0.050964583 0.0509089 0.47602862 -0.011360729 -0.0405644 -0.36695242 -0.4109593 -0.4421322
0.025615338 -0.052655306 0.45390454 -0.47557694 0.4388651 -0.02624914 -0.04115205 0.37836087

fc4.bias f4 [8]
00000000: ede9 173d 51eb 133e 61dc 153e 3c96 17be
00000010: f573 88bf 1457 343e 0bea 07bd 5f5f 463e
0.037088323 0.14445235 0.14634849 -0.14803404 -1.0660387 0.17611343 -0.033182185 0.19372319

fc5.weight f4 [5, 8]
00000000: 0afe b03e 81c6 20be bcce 46be 7031 c93e
00000010: 5cc6 80be 2118 1dbe a06d 6abd 6360 acbe
00000020: f1b0 ad3e d109 d63e 4792 9f3e 321e 3dbe
00000030: 5ddf 1abe 8671 cf3e 5ade 8abd f62e 223e
00000040: 128f 96be c3e5 28be 5fbd 80be f1fd db3e
00000050: 90bc 3cbe 71b0 25be f869 093f 12c6 b0be
00000060: f3ac 54be 0ce5 29be 842b af3e 0e2a 51be
00000070: 3b52 4fbe 1269 26be 73e7 ef3e 8fae aabe
00000080: 3822 a9be b36e 013f cb97 c63e 1230 8dbe
00000090: 2985 373f 28c4 023f cfd1 0f3f 43b0 713e
0.34568816 -0.15700723 -0.194148 0.3929553 -0.25151336 -0.15341236 -0.057233453 -0.33667287
0.33924058 0.41804364 0.31166288 -0.1846855 -0.15124269 0.405163 -0.067806914 0.15838227
-0.2940603 -0.16493897 -0.2514448 0.4296718 -0.18431306 -0.16180588 0.5367732 -0.34526116
-0.207691 -0.1659128 0.34212887 -0.20426199 -0.20246212 -0.16251019 0.4685627 -0.33336303
-0.3303392 0.5055954 0.38787684 -0.27575737 0.7168756 0.5108056 0.5617952 0.23602395

fc5.bias f4 [5]
00000000: c2b2 913d 04d5 023f b53a 6abe 21ef af3e
00000010: 8fdf 91bf
0.071141735 0.51106286 -0.22873957 0.34362128 -1.139635
