Assets/MyObjects/mlp.onnx (onnx, 33297 bytes, 20 tensors)

fc1.weight f4 [64, 63]
0.09954168 0.02895523 0.12495232 0.083118565 -0.003928434 0.005941245 -0.095479876 -0.018015692
-0.084201045 -0.05604267 0.0441374 -0.075478636 -0.057502605 0.08745029 0.004640723 0.046268214
0.029566247 0.010412013 -0.021166759 0.057623748 0.045422766 0.014616691 0.06882332 -0.12049826
-0.1112656 -0.017624132 -0.043826327 0.083932966 0.085011765 -0.056970604 0.06287179 -0.123688005
0.02583318 0.0064544124 0.12306638 -0.04015242 -0.12500179 -0.009428151 -0.054819033 0.04251346
0.016373279 0.028472506 0.052271366 0.06075909 0.099409 -0.0212112 -0.045565538 0.07091596
0.015422308 -0.04706254 0.027554637 0.014741603 0.07511683 0.043789335 -0.043040205 -0.114095725
0.12212984 0.073823966 0.11653775 0.09816717 -0.021194935 -0.11762614 0.021546708 0.038024504
0.03822777 -0.038995706 0.08186037 -0.116654396 -0.08333601 -0.123200364 0.0075222603 -0.0051620463
-0.020087812 -0.036599055 -0.0962632 -0.03738228 -0.05417083 -0.102561235 0.05439134 -0.0050499896
-0.08166984 -0.01976878 -0.07827291 -0.07573741 0.082050554 -0.01924262 -0.06341024 0.076910734
-0.011884502 0.034619406 -0.062470593 -0.1251964 0.07111207 -0.034918103 -0.052289557 -0.09946032
-0.06040134 0.0093835 0.063182265 -0.062823236 0.12265096 0.020650648 -0.040610287 -0.028728308
-0.11554711 0.09074689 0.006613794 -0.11355246 0.08833806 0.07598413 0.083448984 -0.08925426
0.04929611 -0.020164184 -0.10979276 0.052160256 0.052417893 0.02149632 -0.06581072 -0.053528138
-0.08483227 0.013057453 0.10729106 -0.002523921 -0.046318274 0.017894968 -0.077423766 -0.056449115
-0.048539624 -0.107320294 -0.022286782 0.07524369 0.057577025 0.11462451 -0.10912924 0.11638511
0.09817455 0.03126058 -0.015802378 -0.025424423 0.016271073 0.04539063 -0.03430985 -0.036070794
0.09066366 0.09796774 0.024025137 -0.007340396 -0.0055435277 -0.10775236 0.046568368 -0.099681325
0.09616501 -0.07581308 -0.059567172 -0.09982405 0.11224546 -0.09257555 0.10618581 0.123204194
0.06619594 0.054697003 0.11415592 0.033568304 -0.056077547 0.10119205 0.044959553 -0.0698935
0.019913683 -0.051556915 0.030243047 0.08702527 0.03768667 0.07155658 -0.07773705 0.102975525
0.011357652 0.08324427 0.02690364 -0.04012809 -0.12211959 0.009766619 0.088665746 -0.038285863
0.08354895 -0.09250792 0.014157321 -0.0363337 0.053916227 -0.119283944 -0.1118963 -0.083439864
0.022063121 -0.09565195 -0.057710364 -0.041278798 -0.05710333 -0.03984396 -0.10744706 0.039206404
0.020246712 0.08608962 -0.11240459 0.02767036 0.051483247 0.030814638 -0.016135016 -0.12167697
-0.110777706 -0.0910582 0.12151396 0.018183542 0.10825482 -0.034877084 0.04193499 -0.059209134
-0.068936385 -0.08062381 -0.051322035 0.11184301 -0.059167486 -0.060184855 -0.033105135 -0.079926886
0.014593381 0.08764038 0.09781842 0.05043213 -0.07308644 0.10057112 0.033359148 -0.07329351
0.1256262 -0.09656175 0.108598635 -0.03148678 -0.12551354 0.09193923 0.019064555 0.07873919
0.09765141 0.098100744 -0.047125768 0.059920162 0.117366284 -0.053989325 0.0024449814 0.103519104
-0.0992495 -0.03454168 0.090105824 -0.08155496 -0.09380251 -0.053405493 -0.038689394 0.08126462
00000000: 82dc cb3d 8533 ed3c 00e7 ff3d 113a aa3d
00000010: 18ba 80bb c6ae c23b f48a c3bd a595 93bc
00000020: 9971 acbd 008d 65bd 6bc9 343d 8b94 9abd
00000030: da87 6bbd 2319 b33d 3511 983b bd83 3d3d
00000040: ea34 f23c 2697 2a3c e965 adbc e106 6c3d
00000050: 390d 3a3d d87a 6f3c 3ef3 8c3d cbc7 f6bd
00000060: 38df e3bd 7c60 90bc 3c83 33bd 0ce5 ab3d
00000070: a61a ae3d 025a 69bd edc2 803d 2350 fdbd
00000080: 1ba0 d33c 897f d33b 3a0a fc3d dd76 24bd
00000090: 7800 00be 8878 1abc ec89 60bd 9822 2e3d
000000a0: 4121 863c 2c3f e93c 801a 563d 86de 783d
000000b0: f296 cb3d 1cc3 adbc eea2 3abd 633c 913d
000000c0: d9ad 7c3c a6c4 40bd 43ba e13c c486 713c
000000d0: dad6 993d 725c 333d ed4a 30bd 05ab e9bd
000000e0: 361f fa3d 0531 973d 58ab ee3d df0b c93d
000000f0: 00a1 adbc f9e5 f0bd b982 b03c 95bf 1b3d
00000100: b994 1c3d f6b9 1fbd 69a6 a73d 80e8 eebd
00000110: 12ac aabd 7950 fcbd 4b7d f63b 6226 a9bb
00000120: 328f a4bc e4e8 15bd a425 c5bd 291e 19bd
00000130: 3be2 5dbd a00b d2bd 74c9 5e3d 627a a5bb
00000140: 8442 a7bd 23f2 a1bc 8c4d a0bd 371c 9bbd
00000150: 1f0a a83d b3a2 9dbc 3add 81bd 6083 9d3d
00000160: 37b7 42bc 14cd 0d3d 2ae1 7fbd 7c33 00be
00000170: 34a3 913d 4906 0fbd 932d 56bd dab1 cbbd
00000180: 6567 77bd 40bd 193c b465 813d 78a9 80bd
00000190: 6d30 fb3d 8c2b a93c f956 26bd a157 ebbc
000001a0: f7a3 ecbd 81d9 b93d 86b8 d83b 318e e8bd
000001b0: 96ea b43d 919d 9b3d 4de7 aa3d f0ca b6bd
000001c0: b8ea 493d 5c2f a5bc 07db e0bd fea5 553d
000001d0: 25b4 563d 0d19 b03c c5c7 86bd 5240 5bbd
000001e0: 8bbc adbd edee 553c 6abb db3d 5e68 25bb
000001f0: 3bb8 3dbd 7898 923c 5a90 9ebd 3037 67bd
00000200: 7cd1 46bd beca dbbd c592 b6bc 5d19 9a3d
00000210: e3d5 6b3d 41c0 ea3d 277f dfbd 515b ee3d
00000220: bd0f c93d 180b 003d fd73 81bc e146 d0bc
00000230: ea4a 853c 86eb 393d 7c88 0cbd f8be 13bd
00000240: dead b93d 4fa3 c83d 5dd0 c43c b487 f0bb
00000250: 7ba6 b5bb 45ad dcbd 79be 3e3d b925 ccbd
00000260: 29f2 c43d e343 9bbd b5fc 73bd 8d70 ccbd
00000270: f3e0 e53d 4098 bdbd f277 d93d 7b52 fc3d
00000280: bd91 873d f709 603d 94ca e93d eb7e 093d
00000290: 92b1 65bd c73d cf3d 8227 383d 5324 8fbd
000002a0: 0522 a33c 582d 53bd 44c0 f73c 4e3a b23d
000002b0: 565d 1a3d 428c 923d 9a34 9fbd d5e4 d23d
000002c0: 7215 3a3c f97b aa3d 0665 dc3c 5a5d 24bd
000002d0: d619 fabd 2b04 203c 6396 b53d a3d1 1cbd
000002e0: b61b ab3d cb74 bdbd 1cf4 673c a5d2 14bd
000002f0: 43d7 5c3d 244b f4bd e329 e5bd 85e2 aabd
00000300: b8bd b43c 2be5 c3bd b461 6cbd f513 29bd
00000310: 2ee5 69bd 6c33 23bd 340d dcbd e596 203d
00000320: 6fdc a53c c14f b03d 6134 e6bd f3ac e23c
00000330: 19e0 523d fb6e fc3c 952d 84bc c631 f9bd
00000340: 6cdf e2bd b97c babd 50dc f83d a7f5 943c
00000350: b4b4 dd3d 46db 0ebd 06c4 2b3d 4785 72bd
00000360: 852e 8dbd 191e a5bd 0e37 52bd f30d e53d
00000370: 9b59 72bd 6584 76bd 4099 07bd b5b0 a3bd
00000380: 1419 6f3c cd7c b33d 0655 c83d ec91 4e3d
00000390: 58ae 95bd 3bf8 cd3d 9aa3 083d e81a 96bd
000003a0: 28a4 003e 2bc2 c5bd f668 de3d 48f8 00bd
000003b0: 9f86 00be a34a bc3d 452d 9c3c 0342 a13d
000003c0: 76fd c73d 0be9 c83d f306 41bd d86e 753d
000003d0: bc5d f03d e923 5dbd fb3b 203b d301 d43d
000003e0: 5243 cbbd 947b 0dbd 6789 b83d 4906 a7bd
000003f0: 881b c0bd b8bf 5abd c578 1ebd 116e a63d

fc1.bias f4 [64]
0.10826026 -0.008505371 0.106373474 0.053034376 -0.11317641 -0.013573909 0.030552693 -0.029427787
0.064559445 -0.06834472 0.11601424 -0.014057189 -0.1107647 0.033121776 0.035224054 0.04946835
-0.00424987 -0.10585197 0.06202405 -0.11299856 -0.10556356 -0.014314284 0.0657902 0.023151454
0.09707869 -0.08315485 0.00032953097 -0.00025258886 0.124485746 -0.09402006 -0.11508594 -0.114197746
-0.03147873 -0.018467551 -0.0063552274 -0.077107705 -0.10050056 -0.051887993 -0.087016724 -0.07475264
0.12534106 0.11534581 0.09531555 -0.10230084 -0.1171905 -0.11224886 0.096007414 0.08558046
-0.03640441 -0.030379644 -0.098120175 -0.103819706 -0.019683411 -0.1018032 0.016091296 -0.040243253
-0.11799995 0.059470825 -0.07518635 0.06788993 0.12527327 -0.08288286 0.022454485 0.099791214
00000000: 8eb7 dd3d 1d5a 0bbc 56da d93d 933a 593d
00000010: 09c9 e7bd 1a65 5ebc a449 fa3c 8b12 f1bc
00000020: be37 843d 51f8 8bbd e098 ed3d 2050 66bc
00000030: 9ad8 e2bd b3aa 073d 1947 103d 539f 4a3d
00000040: 7e42 8bbb ebc8 d8bd ee0c 7e3d ca6b e7bd
00000050: b531 d8bd 7586 6abc 03bd 863d 1ea8 bd3c
00000060: 31d1 c63d 174d aabd e6c4 ac39 e76d 84b9
00000070: 62f2 fe3d 978d c0bd 2db2 ebbd 82e0 e9bd
00000080: d7ef 00bd 4349 97bc 833f d0bb a5ea 9dbd
00000090: 3dd3 cdbd 8188 54bd d335 b2bd ea17 99bd
000000a0: 6859 003e 6d3a ec3d cd34 c33d 1a83 d1bd
000000b0: 9301 f0bd bbe2 e5bd 899f c43d cf44 af3d
000000c0: ca1c 15bd bbde f8bc 3bf3 c8bd 6d9f d4bd
000000d0: 1b3f a1bc 327e d0bd e5d1 833c 1cd6 24bd
000000e0: f5a9 f1bd ae97 733d 4dfb 99bd e009 8b3d
000000f0: a347 003e 7dbe a9bd 78f2 b73c 565f cc3d

bn1.weight f4 [64]
1.0 1.0 1.0 1.0 1.0 1.0 1.0 1.0
1.0 1.0 1.0 1.0 1.0 1.0 1.0 1.0
1.0 1.0 1.0 1.0 1.0 1.0 1.0 1.0
1.0 1.0 1.0 1.0 1.0 1.0 1.0 1.0
1.0 1.0 1.0 1.0 1.0 1.0 1.0 1.0
1.0 1.0 1.0 1.0 1.0 1.0 1.0 1.0
1.0 1.0 1.0 1.0 1.0 1.0 1.0 1.0
1.0 1.0 1.0 1.0 1.0 1.0 1.0 1.0
00000000: 0000 803f 0000 803f 0000 803f 0000 803f
00000010: 0000 803f 0000 803f 0000 803f 0000 803f
00000020: 0000 803f 0000 803f 0000 803f 0000 803f
00000030: 0000 803f 0000 803f 0000 803f 0000 803f
00000040: 0000 803f 0000 803f 0000 803f 0000 803f
00000050: 0000 803f 0000 803f 0000 803f 0000 803f
00000060: 0000 803f 0000 803f 0000 803f 0000 803f
00000070: 0000 803f 0000 803f 0000 803f 0000 803f
00000080: 0000 803f 0000 803f 0000 803f 0000 803f
00000090: 0000 803f 0000 803f 0000 803f 0000 803f
000000a0: 0000 803f 0000 803f 0000 803f 0000 803f
000000b0: 0000 803f 0000 803f 0000 803f 0000 803f
000000c0: 0000 803f 0000 803f 0000 803f 0000 803f
000000d0: 0000 803f 0000 803f 0000 803f 0000 803f
000000e0: 0000 803f 0000 803f 0000 803f 0000 803f
000000f0: 0000 803f 0000 803f 0000 803f 0000 803f

bn1.bias f4 [64]
0.0 0.0 0.0 0.0 0.0 0.0 0.0 0.0
0.0 0.0 0.0 0.0 0.0 0.0 0.0 0.0
0.0 0.0 0.0 0.0 0.0 0.0 0.0 0.0
0.0 0.0 0.0 0.0 0.0 0.0 0.0 0.0
0.0 0.0 0.0 0.0 0.0 0.0 0.0 0.0
0.0 0.0 0.0 0.0 0.0 0.0 0.0 0.0
0.0 0.0 0.0 0.0 0.0 0.0 0.0 0.0
0.0 0.0 0.0 0.0 0.0 0.0 0.0 0.0
00000000: 0000 0000 0000 0000 0000 0000 0000 0000
00000010: 0000 0000 0000 0000 0000 0000 0000 0000
00000020: 0000 0000 0000 0000 0000 0000 0000 0000
00000030: 0000 0000 0000 0000 0000 0000 0000 0000
00000040: 0000 0000 0000 0000 0000 0000 0000 0000
00000050: 0000 0000 0000 0000 0000 0000 0000 0000
00000060: 0000 0000 0000 0000 0000 0000 0000 0000
00000070: 0000 0000 0000 0000 0000 0000 0000 0000
00000080: 0000 0000 0000 0000 0000 0000 0000 0000
00000090: 0000 0000 0000 0000 0000 0000 0000 0000
000000a0: 0000 0000 0000 0000 0000 0000 0000 0000
000000b0: 0000 0000 0000 0000 0000 0000 0000 0000
000000c0: 0000 0000 0000 0000 0000 0000 0000 0000
000000d0: 0000 0000 0000 0000 0000 0000 0000 0000
000000e0: 0000 0000 0000 0000 0000 0000 0000 0000
000000f0: 0000 0000 0000 0000 0000 0000 0000 0000

bn1.running_mean f4 [64]
0.044868488 -0.045997072 0.05599034 -0.052213218 -0.0053196563 0.008850501 -0.035853412 -0.041563828
0.011927243 -0.04628364 -0.022708701 0.031051306 -0.035990078 -0.017868394 -0.043963473 -0.031071544
-0.06779447 -0.037413426 0.021578168 0.04288754 -0.010947044 -0.03055014 -0.02094811 0.047531087
-0.03298899 -0.03594723 -0.0077121668 -0.026400764 0.0039143483 -0.0038410153 0.05402514 -0.007955864
0.053749073 -0.011446016 0.012777264 -0.017989201 -0.05601063 0.03219661 0.000509581 0.025124013
0.055434454 -0.00060354697 0.013012037 0.003367304 -0.043730535 -0.007231999 -0.026578644 0.004918127
-0.01325067 0.056169212 -0.016069748 0.011834182 0.023842549 -0.036886837 0.00017328821 -0.024666173
0.0024226957 0.03507885 -0.06144742 0.028980676 0.008499811 0.027636308 0.013905547 -0.0015101578
00000000: 05c8 373d 6d67 3cbd 2056 653d 87dd 55bd
00000010: 8350 aebb b101 113c 07db 12bd d53e 2abd
00000020: 7c6a 433c ea93 3dbd 9907 babc 4f5f fe3c
00000030: 556a 13bd bd60 92bc 0b13 34bd c089 febc
00000040: d4d7 8abd d23e 19bd b3c4 b03c d8aa 2f3d
00000050: 3b5b 33bc 4a44 fabc 5f9b abbc f5af 423d
00000060: 771f 07bd 673d 13bd 58b6 fcbb 6a46 d8bc
00000070: ef43 803b 8bb9 7bbb 7749 5d3d 5059 02bc
00000080: fd27 5c3d 1288 3bbc bb57 513c 175e 93bc
00000090: 676b 65bd 98e0 033d 6795 053a e0d0 cd3c
000000a0: 3d0f 633d 5a37 1eba 7030 553c fdad 5c3b
000000b0: ca1e 33bd 68fa ecbb 75bb d9bc 3d28 a13b
000000c0: 5719 59bc b011 663d b4a4 83bc 28e4 413c
000000d0: 7351 c33c a716 17bd b3b4 3539 b710 cabc
000000e0: 17c6 1e3b d7ae 0f3d 4ab0 7bbd e268 ed3c
000000f0: cb42 0b3c 8a65 e23c 17d4 633c 7df0 c5ba

bn1.running_var f4 [64]
0.9019894 0.9039905 0.9114222 0.9106025 0.90085167 0.9054479 0.90200084 0.9044011
0.9016824 0.90354973 0.9035459 0.9014956 0.9014419 0.9003323 0.90163237 0.91006315
0.90268487 0.90333754 0.9008153 0.9088482 0.90054065 0.90097487 0.902226 0.9009521
0.9001561 0.90163726 0.90213144 0.9091099 0.90266186 0.9034012 0.9000006 0.9024899
0.9006516 0.9007036 0.90409046 0.9010165 0.90013367 0.9045785 0.90027875 0.9053623
0.9004555 0.9014365 0.90681976 0.9001208 0.90595955 0.90057445 0.91968745 0.90020347
0.9001004 0.91389334 0.90042853 0.90178466 0.9000145 0.90013605 0.90016156 0.90037304
0.90098643 0.9005362 0.90128106 0.9038652 0.90200794 0.90678126 0.90030617 0.9016885
00000000: c7e8 663f ec6b 673f f752 693f 3f1d 693f
00000010: 379e 663f 6fcb 673f 87e9 663f d586 673f
00000020: a8d4 663f 094f 673f c94e 673f 6ac8 663f
00000030: e5c4 663f 2d7c 663f 61d1 663f e6f9 683f
00000040: 5b16 673f 2141 673f d59b 663f 47aa 683f
00000050: d589 663f 4aa6 663f 48f8 663f cca4 663f
00000060: a170 663f b3d1 663f 16f2 663f 6dbb 683f
00000070: d914 673f 4d45 673f 7066 663f 9409 673f
00000080: 1a91 663f 8394 663f 7972 673f 04a9 663f
00000090: 296f 663f 7592 673f ab78 663f d3c5 673f
000000a0: 4084 663f 8bc4 663f 5725 683f 516e 663f
000000b0: f7ec 673f 0c8c 663f a370 6b3f bc73 663f
000000c0: fb6c 663f eaf4 693f 7c82 663f 5cdb 663f
000000d0: 5a67 663f 516f 663f fd70 663f d97e 663f
000000e0: 0ca7 663f 8a89 663f 5bba 663f b663 673f
000000f0: fee9 663f d122 683f 777a 663f 0fd5 663f

fc2.weight f4 [32, 64]
-0.0755527 0.081704944 -0.06609374 0.0149294585 -0.01552245 0.059113517 -0.06466451 0.031536043
-0.039522633 0.04125622 0.12283677 -0.006260842 -0.02733758 -0.02052252 -0.011081442 0.021576375
0.06749506 0.023920521 0.057611316 0.010075331 0.124607876 0.09888847 -0.10534781 0.013976365
0.058412433 0.055533722 -0.07591577 0.10339855 0.06488249 -0.06227888 0.045004815 0.08899863
-0.10636048 -0.08677684 0.01049982 0.07506527 0.021014363 -0.045369133 -0.113753274 -0.020525515
0.117112696 -0.09313446 -0.036040813 -0.09062719 -0.01591739 0.12128176 0.1096887 -0.032393247
-0.061405465 -0.026014492 -0.037054583 0.03846541 -0.11347856 0.00659813 0.116064996 -0.03209202
-0.0023801923 -0.056613684 -0.037240863 -0.037324026 0.0044773817 -0.060418025 -0.12160419 0.026165709
0.08566393 0.118434384 -0.081153184 -0.002008438 -0.1192527 -0.10433324 0.07902117 0.088330194
-0.008371457 0.0860147 0.015437573 -0.07995503 -0.07773958 -0.08745544 0.07301694 -0.093780026
-0.0838922 0.0847134 0.08153549 -0.07837984 -0.05691676 -0.090425104 0.036112458 0.06785916
0.039984748 -0.07428464 0.1228496 -0.051819757 0.11625461 -0.03897436 0.02205661 0.08217242
-0.056515366 0.076536104 -0.122239426 -0.0101213455 -0.023418471 0.07894012 -0.07561174 -0.10951744
-0.119169325 0.038296223 -0.06518239 0.048485667 -0.11942582 -0.0026825964 -0.11437583 -0.08997369
-0.007051632 0.08260515 -0.09482534 -0.047348812 -0.013606027 -0.021760434 -0.123323455 0.069779664
0.05429752 -0.028682426 -0.04710667 -0.08813323 0.0746167 -0.05671297 -0.06134288 -0.09104955
-0.0059988946 0.10811268 -0.0024884045 0.102781415 -0.06787197 0.051610038 -0.12131472 0.06907663
0.10528298 0.059491917 0.09425269 0.11561677 -0.07302396 -0.025349066 0.02847308 -0.111830145
-0.06762385 -0.09197414 0.122915894 -0.1091802 -0.1044786 -0.097122744 -0.004380971 0.1002959
0.018523932 -0.080262035 0.06994088 0.055888504 -0.087705 -0.039077953 0.101019815 0.0044926107
0.10051368 -0.09233518 -0.024720132 -0.09294681 0.054632217 0.0034862012 -0.113659605 0.02060999
0.08860248 0.06877346 0.070197925 -0.06249073 0.07246202 0.063691095 -0.086986884 -0.11812815
0.014901996 0.014488608 -0.056887493 -0.06525546 -0.036852002 -0.060350075 -0.07571307 0.018307477
-0.028376594 -0.117408305 0.043403298 -0.07943523 -0.0353951 0.117929265 -0.017222196 0.09682526
0.027754113 0.07975879 -0.08291942 -0.113215804 -0.089331046 -0.025575861 0.012006849 -0.0067967474
0.07154065 0.04170358 -0.10893613 -0.05168861 -0.06958616 -0.07028316 -0.035735995 0.10901104
0.07974945 -0.015177935 -0.081963375 0.11600487 -0.09167427 0.024651572 0.106008574 -0.026102453
0.096857876 0.1167153 0.020419896 -0.05552037 -0.005967051 -0.065202266 -0.053398162 0.10762042
-0.06190321 0.011090785 0.036503762 -0.011985689 -0.043148786 0.025431588 0.04388003 0.05279115
0.06891066 0.017978042 -0.1059355 0.07909146 0.10760398 -0.11486101 0.09142105 0.035423204
0.020663723 -0.073232055 -0.11323558 0.10286106 -0.061728954 0.044871718 0.014152393 0.022238746
-0.005759701 0.10671952 -0.09635639 0.04449992 -0.030416131 -0.10182525 -0.034639344 0.040997654
00000000: 60bb 9abd ec54 a73d 285c 87bd b09a 743c
00000010: e051 7ebc 0421 723d d46e 84bd f02b 013d
00000020: 7ce2 21bd 48fc 283d d891 fb3d c027 cdbb
00000030: 10f3 dfbc d81e a8bc f08e 35bc f0c0 b03c
00000040: da3a 8a3d f8f4 c33c d8f9 6b3d 0013 253c
00000050: 6a32 ff3d 0a86 ca3d 98c0 d7bd 20fd 643c
00000060: e041 6f3d 5477 633d ba79 9bbd 9ec2 d33d
00000070: 1ce1 843d 2418 7fbd f856 383d ea44 b63d
00000080: 86d3 d9bd 0eb8 b1bd 7007 2c3c d2bb 993d
00000090: 5026 ac3c fcd4 39bd 7af7 e8bd 2025 a8bc
000000a0: c8d8 ef3d 48bd bebd 889f 13bd c09a b9bd
000000b0: 3065 82bc 9262 f83d 78a4 e03d c8ae 04bd
000000c0: 4c84 7bbd 581c d5bc 8cc6 17bd e88d 1d3d
000000d0: 7267 e8bd 2035 d83b 7cb3 ed3d ec72 03bd
000000e0: 00fd 1bbb c0e3 67bd e089 18bd 14e1 18bd
000000f0: 00b7 923b e478 77bd 9e0b f9bd 7859 d63c
00000100: 9270 af3d ba8d f23d a433 a6bd 00a0 03bb
00000110: c23a f4bd aaac d5bd dad5 a13d 76e6 b43d
00000120: 7028 09bc 7a28 b03d e0ed 7c3c 76bf a3bd
00000130: ee35 9fbd d61b b3bd e889 953d be0f c0bd
00000140: accf abbd 387e ad3d 14fc a63d 9c85 a0bd
00000150: 8c21 69bd cc30 b9bd a8ea 133d bef9 8a3d
00000160: 0cc7 233d 8c22 98bd 9298 fb3d f440 54bd
00000170: e616 ee3d 94a3 1fbd 10b0 b43c 044a a83d
00000180: a87c 67bd f6be 9c3d aa58 fabd 00d4 25bc
00000190: 18d8 bfbc 5cab a13d 54da 9abd ae4a e0bd
000001a0: 0c0f f4bd 80dc 1c3d 587e 85bd e898 463d
000001b0: 8695 f4bd 80ce 2fbb e03d eabd 2044 b8bd
000001c0: 6011 e7bb e42c a93d ca33 c2bd d4f0 41bd
000001d0: d0eb 5ebc f042 b2bc 0291 fcbd a4e8 8e3d
000001e0: 1467 5e3d 68f7 eabc ecf2 40bd 327f b4bd
000001f0: a4d0 983d dc4b 68bd ac42 7bbd 3078 babd
00000200: 6092 c4bb 2e6a dd3d 8014 23bb 107f d23d
00000210: 7600 8bbd 0c65 533d da73 f8bd 0c78 8d3d
00000220: 9a9e d73d ccad 733d 8e07 c13d 7cc8 ec3d
00000230: 968d 95bd d8a8 cfbc 6040 e93c 3407 e5bd
00000240: 607e 8abd f05c bcbd 54bb fb3d de99 dfbd
00000250: e0f8 d5bd 4ae8 c6bd 408e 8fbb f067 cd3d
00000260: 80bf 973c 6c60 a4bd 2a3d 8f3d 58eb 643d
00000270: ae9e b3bd 3410 20bd 7ae3 ce3d c036 933b
00000280: 1eda cd3d 3a1a bdbd e081 cabc e65a bebd
00000290: 08c6 5f3d c078 643b 5ec6 e8bd 48d6 a83c
000002a0: 3875 b53d 1ad9 8c3d eec3 8f3d 48f6 7fbd
000002b0: f866 943d 7a70 823d 2e26 b2bd 2ced f1bd
000002c0: 8027 743c a061 6d3c dc02 69bd a8a4 85bd
000002d0: 20f2 16bd a431 77bd 740f 9bbd 90f9 953c
000002e0: 0876 e8bc c473 f0bd a8c7 313d f0ae a2bd
000002f0: 74fa 10bd e684 f13d 9015 8dbc 524c c63d
00000300: 985c e33c 9458 a33d a8d1 a9bd b0dd e7bd
00000310: 32f3 b6bd 7884 d1bc 60b8 443c 40b7 debb
00000320: e883 923d 60d1 2a3d e819 dfbd 70b7 53bd
00000330: 3083 8ebd 9ef0 8fbd e85f 12bd 2e41 df3d
00000340: ae53 a33d e0ac 78bc 6adc a7bd f693 ed3d
00000350: b8bf bbbd 18f2 c93c 061b d93d d0d4 d5bc
00000360: 6c5d c63d 6e08 ef3d a047 a73c 5469 63bd
00000370: 4087 c3bb c488 85bd 08b8 5abd 1868 dc3d
00000380: 388e 7dbd 20b6 353c f884 153d a05f 44bc
00000390: c8bc 30bd e855 d03c 8cbb 333d 883b 583d
000003a0: 0821 8d3d b046 933c b6f4 d8bd b4fa a13d
000003b0: 7a5f dc3d 403c ebbd f63a bb3d ec17 113d
000003c0: f846 a93c b0fa 95bd 0ee8 e7bd d2a8 d23d
000003d0: 80d7 7cbd 68cb 373d 70df 673c 082e b63c
000003e0: e0bb bcbb c48f da3d 8056 c5bd 8c45 363d
000003f0: 402b f9bc c289 d0bd fce1 0dbd 28ed 273d

fc2.bias f4 [32]
0.091099545 0.095060065 0.124849126 0.11607371 0.105382144 -0.040822655 0.056520537 0.06827092
-0.04676187 -0.0005387217 0.09469254 -0.024462163 -0.11534183 0.09849109 -0.0411589 -0.12060942
0.029603288 -0.010691613 -0.09488697 -0.10663439 -0.09104703 0.09417355 -0.06246935 -0.1234912
-0.020468295 0.029434368 0.0583992 0.095554054 -0.069211856 0.03575328 0.078321874 0.063285515
00000000: 6692 ba3d daae c23d e6b0 ff3d 0eb8 ed3d
00000010: 98d2 d73d a835 27bd 1482 673d a0d1 8b3d
00000020: 6089 3fbd 0039 0dba 2aee c13d e064 c8bc
00000030: 5638 ecbd b2b5 c93d 3c96 28bd 1202 f7bd
00000040: 9882 f23c e02b 2fbc 1a54 c2bd 2263 dabd
00000050: de76 babd 10de c03d dcdf 7fbd f4e8 fcbd
00000060: 20ad a7bc 5820 f13c 0034 6f3d d8b1 c33d
00000070: f2be 8dbd 0872 123d 3867 a03d d69b 813d

bn2.weight f4 [32]
1.0 1.0 1.0 1.0 1.0 1.0 1.0 1.0
1.0 1.0 1.0 1.0 1.0 1.0 1.0 1.0
1.0 1.0 1.0 1.0 1.0 1.0 1.0 1.0
1.0 1.0 1.0 1.0 1.0 1.0 1.0 1.0
00000000: 0000 803f 0000 803f 0000 803f 0000 803f
00000010: 0000 803f 0000 803f 0000 803f 0000 803f
00000020: 0000 803f 0000 803f 0000 803f 0000 803f
00000030: 0000 803f 0000 803f 0000 803f 0000 803f
00000040: 0000 803f 0000 803f 0000 803f 0000 803f
00000050: 0000 803f 0000 803f 0000 803f 0000 803f
00000060: 0000 803f 0000 803f 0000 803f 0000 803f
00000070: 0000 803f 0000 803f 0000 803f 0000 803f

bn2.bias f4 [32]
0.0 0.0 0.0 0.0 0.0 0.0 0.0 0.0
0.0 0.0 0.0 0.0 0.0 0.0 0.0 0.0
0.0 0.0 0.0 0.0 0.0 0.0 0.0 0.0
0.0 0.0 0.0 0.0 0.0 0.0 0.0 0.0
00000000: 0000 0000 0000 0000 0000 0000 0000 0000
00000010: 0000 0000 0000 0000 0000 0000 0000 0000
00000020: 0000 0000 0000 0000 0000 0000 0000 0000
00000030: 0000 0000 0000 0000 0000 0000 0000 0000
00000040: 0000 0000 0000 0000 0000 0000 0000 0000
00000050: 0000 0000 0000 0000 0000 0000 0000 0000
00000060: 0000 0000 0000 0000 0000 0000 0000 0000
00000070: 0000 0000 0000 0000 0000 0000 0000 0000

bn2.running_mean f4 [32]
0.010121849 -0.04066963 0.0002385348 0.016754134 0.03788277 0.024334127 -0.012114159 0.02988027
-0.0031950027 -0.031613465 0.025717853 0.023560746 -0.012276987 -0.035672683 -0.005088061 -0.035220068
-0.012042723 0.022082552 -0.02762708 0.018596461 -0.032257576 -0.02031754 0.010170306 0.040202197
-0.0024795495 -0.005569735 -0.018233372 0.01645983 0.020416865 -0.018380513 0.022677934 0.014769561
00000000: 1dd6 253c 3395 26bd 331f 7a39 f73f 893c
00000010: f72a 1b3d 5d58 c73c 777a 46bc 78c7 f43c
00000020: 4063 51bb 1f7d 01bd 3fae d23c 7702 c13c
00000030: 6a25 49bc 851d 12bd c0b9 a6bb eb42 10bd
00000040: d74e 45bc 78e6 b43c 3052 e2bc 9b57 983c
00000050: 8520 04bd f870 a6bc 5ba1 263c 0fab 243d
00000060: f07f 22bb 5382 b6bb 275e 95bc c4d6 863c
00000070: 4541 a73c bb92 96bc 13c7 b93c 07fc 713c

bn2.running_var f4 [32]
0.901869 0.9015237 0.91033137 0.90001553 0.9066179 0.9087236 0.9957532 1.0344508
0.9080855 0.9001706 0.99269575 0.9099291 0.9019803 0.9005678 0.9514355 0.9087324
0.93623275 0.90173554 0.956601 0.91104984 0.92088145 0.9002699 0.90963966 0.9389469
0.9001449 0.9232442 0.93599445 0.9028667 0.90083504 0.9018685 0.96307635 0.9531388
00000000: e3e0 663f 42ca 663f 7a0b 693f 6b67 663f
00000010: 1c18 683f 1ca2 683f afe9 7e3f e268 843f
00000020: 4b78 683f 9571 663f 4f21 7e3f 1df1 683f
00000030: 2ee8 663f 9d8b 663f 4791 733f b0a2 683f
00000040: f3ac 6f3f 24d8 663f cee3 743f 903a 693f
00000050: e3be 6b3f 1778 663f 25de 683f d35e 703f
00000060: e56f 663f bb59 6c3f 559d 6f3f 4622 673f
00000070: 209d 663f dbe0 663f 2c8c 763f e800 743f

fc3.weight f4 [32, 32]
-0.07948573 -0.099128775 0.11883399 0.04625785 0.1613061 -0.110648856 0.0088018 -0.14553624
0.0466632 -0.1470877 -0.0972128 0.17599574 -0.042013496 -0.15964846 -0.1320571 -0.13630319
-0.032391876 0.1168499 0.13684702 -0.06230244 -0.13730942 0.109648 -0.04405486 -0.061609186
-0.044986703 -0.09844433 0.14334974 -0.029146062 0.06727155 0.07434485 -0.10395577 -0.12066461
-0.13559939 -0.047938224 0.060030263 0.008600233 0.11511067 -0.16555746 -0.12130906 -0.059296083
0.14871466 0.059718102 0.14151022 -0.10264085 0.10361436 0.081482016 -0.14724827 -0.024031268
-0.14685848 -0.102964304 0.056104597 -0.16949597 0.012261382 0.083365686 0.12984604 -0.12409086
0.115670614 -0.07625682 -0.16330977 -0.15222539 -0.105286576 0.14122896 0.11708323 0.062152017
-0.08828917 -0.08255008 -0.14757325 -0.039889295 0.0064269095 -0.07339562 0.06883543 -0.053893194
0.11312943 -0.13855985 -0.15834722 -0.006458857 0.024951546 -0.17601609 -0.12701552 -0.09207818
-0.14410923 0.13118693 0.09608607 0.15083773 0.030336374 0.0020246082 -0.030767072 -0.1430339
-0.0502551 0.1526367 0.03962297 0.14940214 0.16284345 -0.1406716 -0.1688215 0.05375666
-0.09725661 -0.094141394 -0.12308593 -0.018521054 0.027063588 0.015672917 0.13521308 0.086633
-0.03636291 0.04206932 0.03334412 -0.03990592 -0.12897551 0.043300323 -0.08943816 0.089873455
0.03341185 -0.0101525225 0.101987176 -0.15200047 -0.017672531 -0.124886714 0.11596893 -0.05350736
-0.032857515 -0.1655521 0.05156256 -0.08744826 0.014167642 -0.03141936 -0.033878647 0.124013245
0.05165463 0.025447465 -0.07935034 0.120983325 0.083761655 0.11648779 -0.12250498 0.1160223
-0.019535169 -0.06994577 0.090832 0.13146345 -0.045020904 0.17372684 -0.109608166 0.025558986
0.16963583 -0.07172201 0.013145349 0.068644315 0.0046379864 0.08171968 0.15547542 0.1217662
-0.030805847 -0.034705378 0.16672999 0.122962 -0.042733364 0.12896895 0.06291563 0.1168102
0.08420038 0.0944404 -0.120137334 0.15118477 0.08952578 -0.021828927 -0.14904377 -0.17376362
0.1758047 0.0017664587 -0.04234224 0.050887115 0.055629414 -0.16609192 0.017115118 -0.0050913813
-0.08834378 0.019902332 -0.17097254 0.035931535 -0.17405932 -0.018296242 -0.06640457 -0.07806197
-0.14471017 -0.102394104 0.0081317285 -0.023518257 -0.14905807 0.07611704 -0.046157375 0.14643952
0.048200145 -0.05238573 -0.09111175 0.14869863 0.12065589 -0.028077323 0.033602774 -0.011945829
0.0059920806 0.012119853 0.021256384 -0.08821596 0.1737325 0.108437434 0.08856252 0.016440706
-0.059218407 0.055160087 0.11283567 -0.054760978 0.106245056 0.08758418 -0.12400498 -0.064660765
0.023450801 0.13046609 -0.082321964 0.03597592 -0.08741018 0.026573714 -0.15814486 0.0074174237
-0.047225036 -0.012777218 -0.016315782 -0.15282796 -0.048654933 -0.101246886 0.1193922 -0.14493182
-0.039257493 -0.003927412 -0.017525017 -0.0023160113 0.016580697 0.11808409 0.17051019 0.00072785496
0.10049821 -0.1257851 -0.065755464 -0.101859994 0.15823539 -0.044936378 0.15209131 0.029702317
-0.049603004 0.026950823 0.105385475 0.08629224 0.06606811 0.13510074 0.08294407 0.05894203
00000000: 6ac9 a2bd 0704 cbbd 3c5f f33d df78 3d3d
00000010: 6d2d 253e de9b e2bd 6d35 103c 7407 15be
00000020: e921 3f3d 289e 16be 8117 c7bd 3a38 343e
00000030: 5816 2cbd e37a 23be fa39 07be 1093 0bbe
00000040: 58ad 04bd 004f ef3d a021 0c3e d830 7fbd
00000050: d79a 0cbe 218f e03d de72 34bd ea59 7cbd
00000060: fa43 38bd 2e9d c9bd 46ca 123e b9c3 eebc
00000070: abc5 893d 1d42 983d c3e6 d4bd 021f f7bd
00000080: 91da 0abe df5a 44bd 4be2 753d fee7 0c3c
00000090: 25bf eb3d e587 29be e270 f8bd 73e0 72bd
000000a0: a848 183e f89a 743d 0ee8 103e 5e35 d2bd
000000b0: c433 d43d 0be0 a63d 40c8 16be 39dd c4bc
000000c0: 1262 16be f3de d2bd efcd 653d 5a90 2dbe
000000d0: f7e3 483c a1bb aa3d 5cf6 043e 5923 febd
000000e0: b7e4 ec3d 892c 9cbd ad3a 27be f9e0 1bbe
000000f0: 7da0 d7bd 539e 103e 55c9 ef3d 1d93 7e3d
00000100: f4d0 b4bd 0410 a9bd 711d 17be f562 23bd
00000110: d398 d23b 7150 96bd 97f9 8c3d 1cbf 5cbd
00000120: 67b0 e73d a2e2 0dbe c625 22be d2a4 d3bb
00000130: 2f67 cc3c 903d 34be 5b10 02be 7c93 bcbd
00000140: 5f91 13be de55 063e c6c8 c43d 3575 1a3e
00000150: fd83 f83c 4aaf 043b 3a0b fcbc 7b77 12be
00000160: 4bd8 4dbd cc4c 1c3e b24b 223d e0fc 183e
00000170: 6fc0 263e 370c 10be 8bdf 2cbe f22f 5c3d
00000180: 792e c7bd 34cd c0bd 7a14 fcbd 77b9 97bc
00000190: 75b4 dd3c 7d64 803c 4c75 0a3e a46c b13d
000001a0: 46f1 14bd e150 2c3d d893 083d 6474 23bd
000001b0: 2812 04be ae5b 313d 5b2b b7bd 930f b83d
000001c0: ddda 083d c456 26bc a7de d03d 03a6 1bbe
000001d0: fcc5 90bc 9bc4 ffbd 1e81 ed3d 892a 5bbd
000001e0: 9a95 06bd 7d86 29be 4333 533d 1318 b3bd
000001f0: 661f 683c 96b1 00bd 56c4 0abd a8fa fd3d
00000200: ce93 533d 3477 d03c 6e82 a2bd 1bc6 f73d
00000210: 3b8b ab3d 2791 ee3d e4e3 fabd 1a9d ed3d
00000220: 3808 a0bc ba3f 8fbd 2106 ba3d 5b9e 063e
00000230: d767 38bd 73e5 313e 3f7a e0bd 1461 d13c
00000240: 04b5 2d3e fde2 92bd 975f 573c 6495 8c3d
00000250: 40fa 973b a65c a73d f334 1f3e 8f60 f93d
00000260: 8b5c fcbc 3a27 0ebd 44bb 2a3e 80d3 fb3d
00000270: 2e09 2fbd 7010 043e e9d9 803d 303a ef3d
00000280: 4071 ac3d f869 c13d 900a f6bd 2ed0 1a3e
00000290: 4b59 b73d 94d2 b2bc ee9e 18be 17ef 31be
000002a0: 2606 343e 8588 e73a 0f6f 2dbd 026f 503d
000002b0: abdb 633d 0014 2abe 0135 8c3c 9ad5 a6bb
000002c0: 95ed b4bd 370a a33c 6d13 2fbe f22c 133d
000002d0: 9b3c 32be 00e2 95bc 1fff 87bd f4de 9fbd
000002e0: e72e 14be 00b4 d1bd f13a 053c 5ca9 c0bc
000002f0: aea2 18be 40e3 9b3d 840f 3dbd 3ef4 153e
00000300: 846d 453d 6b92 56bd cc98 babd 7444 183e
00000310: 6f1a f73d 6a02 e6bc 10a3 093d 70b8 43bc
00000320: 3759 c43b 5992 463c de21 ae3c 92aa b4bd
00000330: efe6 313e 7214 de3d 4460 b53d a9ae 863c
00000340: 008f 72bd 8bef 613d 6316 e73d 0c4d 60bd
00000350: 0297 d93d 565f b33d 53f6 fdbd dd6c 84bd
00000360: e51b c03c e798 053e 6b98 a8bd 7c5b 133d
00000370: 1c04 b3bd 1eb1 d93c baf0 21be dc0d f33b
00000380: 0a6f 41bd 8957 51bc ada8 85bc ef7e 1cbe
00000390: 654a 47bd 875a cfbd e683 f43d 0269 14be
000003a0: 77cc 20bd 85b1 80bb a090 8fbc 39c8 17bb
000003b0: 3ed4 873c 12d6 f13d 399a 2e3e 85cd 3e3a
000003c0: 01d2 cd3d cfcd 00be cdaa 86bd f99b d0bd
000003d0: 7508 223e 350f 38bd d3bd 1b3e 4652 f33c
000003e0: 852c 4bbd f9c7 dc3c 57d4 d73d fcb9 b03d
000003f0: b84e 873d d957 0a3e 95de a93d 336d 713d

fc3.bias f4 [32]
0.15779129 -0.15331927 0.14348365 -0.098725095 -0.14441259 -0.13727191 -0.1728703 0.09144947
0.073273055 -0.15150838 0.009823545 0.047245666 0.09892883 0.05826475 0.1217563 -0.13158144
0.08616327 0.06785497 0.16744716 -0.05510319 0.0025768795 -0.09861235 0.14660783 -0.10601995
-0.1316114 -0.15372251 0.04735369 0.045532316 -0.12203835 -0.07915714 -0.04649067 0.14034677
00000000: 0a94 213e baff 1cbe 61ed 123e 6230 cabd
00000010: e5e0 13be 0291 0cbe e904 31be dc49 bb3d
00000020: 2f10 963d 0325 1bbe eff2 203c ac84 413d
00000030: 339b ca3d 05a7 6e3d 5e5b f93d 49bd 06be
00000040: 5e76 b03d 8cf7 8a3d 4577 2b3e e2b3 61bd
00000050: dde0 283b 46f5 c9bd 5d20 163e fd20 d9bd
00000060: 24c5 06be 6f69 1dbe f1f5 413d 1880 3a3d
00000070: 3eef f9bd 231d a2bd 006d 3ebd 10b7 0f3e

bn3.weight f4 [32]
1.0 1.0 1.0 1.0 1.0 1.0 1.0 1.0
1.0 1.0 1.0 1.0 1.0 1.0 1.0 1.0
1.0 1.0 1.0 1.0 1.0 1.0 1.0 1.0
1.0 1.0 1.0 1.0 1.0 1.0 1.0 1.0
00000000: 0000 803f 0000 803f 0000 803f 0000 803f
00000010: 0000 803f 0000 803f 0000 803f 0000 803f
00000020: 0000 803f 0000 803f 0000 803f 0000 803f
00000030: 0000 803f 0000 803f 0000 803f 0000 803f
00000040: 0000 803f 0000 803f 0000 803f 0000 803f
00000050: 0000 803f 0000 803f 0000 803f 0000 803f
00000060: 0000 803f 0000 803f 0000 803f 0000 803f
00000070: 0000 803f 0000 803f 0000 803f 0000 803f

bn3.bias f4 [32]
0.0 0.0 0.0 0.0 0.0 0.0 0.0 0.0
0.0 0.0 0.0 0.0 0.0 0.0 0.0 0.0
0.0 0.0 0.0 0.0 0.0 0.0 0.0 0.0
0.0 0.0 0.0 0.0 0.0 0.0 0.0 0.0
00000000: 0000 0000 0000 0000 0000 0000 0000 0000
00000010: 0000 0000 0000 0000 0000 0000 0000 0000
00000020: 0000 0000 0000 0000 0000 0000 0000 0000
00000030: 0000 0000 0000 0000 0000 0000 0000 0000
00000040: 0000 0000 0000 0000 0000 0000 0000 0000
00000050: 0000 0000 0000 0000 0000 0000 0000 0000
00000060: 0000 0000 0000 0000 0000 0000 0000 0000
00000070: 0000 0000 0000 0000 0000 0000 0000 0000

bn3.running_mean f4 [32]
-0.018208355 -0.03581273 -0.019458786 -0.030925367 0.06138302 -0.050754916 0.005292351 0.03224219
-0.019020764 0.014832104 -0.06880078 0.028026624 -0.03417067 -0.010133561 0.05649212 0.010318645
0.048469793 0.08018703 0.06259237 -0.021031344 -0.035227634 0.009773421 0.016589522 -0.005972694
-0.009617492 -0.024056498 0.009129788 -0.027626222 -0.015704338 0.0007244021 -0.009775134 0.024944175
00000000: b029 95bc 5fb0 12bd 0868 9fbc 3257 fdbc
00000010: c36c 7b3d 63e4 4fbd 756b ad3b 6310 043d
00000020: 6fd1 9bbc 5a02 733c 6ce7 8cbd 1798 e53c
00000030: 8bf6 0bbd 3c07 26bc 4864 673d 890f 293c
00000040: 4388 463d 1939 a43d 6e30 803d ed49 acbc
00000050: da4a 10bd b320 203c c0e6 873c 97b6 c3bb
00000060: af92 1dbc 2212 c5bc 1b95 153c 6350 e2bc
00000070: 62a6 80bc cde5 3d3a e227 20bc ba57 cc3c

bn3.running_var f4 [32]
0.9364324 0.923518 0.9083409 0.9061871 0.91142535 0.9119282 0.9049431 0.90651596
0.90890205 0.9053779 1.0265816 0.92380667 0.9180104 0.92139494 0.9171349 0.91721296
0.90283734 0.9182811 0.914649 0.9029224 0.90440804 0.9000377 0.91569906 0.92659336
0.9024843 0.9074935 0.91388464 0.9 0.99631554 0.9401306 0.90174073 0.9006236
00000000: 09ba 6f3f ad6b 6c3f 0789 683f e1fb 673f
00000010: 2c53 693f 2074 693f 5aaa 673f 6e11 683f
00000020: cead 683f d9c6 673f 0767 833f 987e 6c3f
00000030: bb02 6b3f 8ae0 6b3f 5ac9 6a3f 78ce 6a3f
00000040: 5920 673f 7814 6b3f 7026 6a3f ec25 673f
00000050: 4987 673f df68 663f 416b 6a3f 3935 6d3f
00000060: 3609 673f 7e51 683f 58f4 693f 6666 663f
00000070: 890e 7f3f 66ac 703f 7bd8 663f 458f 663f

fc5.weight f4 [5, 32]
0.17453109 0.123696655 0.12836018 -0.13547657 -0.071420975 0.012988226 -0.09671378 0.005211605
0.15563329 0.1433089 -0.08729379 -0.059999853 -0.11498758 0.14121242 -0.15750536 0.14033443
-0.14901692 0.12119891 -0.047342375 0.1145176 -0.0413579 0.080757365 -0.13042568 -0.17033151
-0.14193839 0.09672246 -0.16949058 -0.14589202 0.13705179 -0.09131932 -0.10888741 0.15638797
-0.056345023 0.09617864 0.10214874 -0.038394682 -0.044151206 -0.0015379806 0.027628459 0.083890095
0.13160191 0.10730512 0.10736094 0.014029127 -0.08471181 -0.07252857 -0.11961726 -0.13397181
0.023417316 -0.101395056 -0.12404273 0.04842953 -0.0024449597 0.11571621 0.06279404 -0.17675778
0.07541778 -0.09287711 0.14899386 0.09913485 0.17528136 0.07408238 0.076863185 0.15204227
0.037433587 0.10490201 -0.13793026 0.14979625 0.09186761 0.1616587 0.04045343 0.15498339
0.09963641 -0.063193254 0.0005391846 -0.06886203 -0.102467224 0.008902995 0.030603543 -0.07749826
0.07972232 -0.12714423 0.10337341 0.041460823 -0.15464905 -0.13331486 -0.037054285 -0.053114574
0.05481086 0.058615666 0.12732904 -0.16406646 -0.17573231 -0.11440935 0.02456508 0.17150795
-0.082698815 -0.1040621 0.15569006 0.057379033 -0.14861023 -0.027001377 -0.03873681 -0.12550686
0.17437933 -0.10385588 -0.05939338 0.13972053 -0.0357329 0.17079756 0.02465365 0.0371233
-0.0983005 -0.061924804 -0.008771075 -0.16722605 0.1705838 0.12820631 0.00459761 0.095213905
0.018871842 0.14526436 0.16344339 -0.095145874 0.009549823 -0.0967518 -0.024777394 0.1724166
-0.0781569 0.014421366 0.0124029955 0.0007306999 -0.035783157 -0.14606284 0.07690862 -0.057873208
0.09920812 0.15401411 0.12702961 0.01788647 -0.019611266 -0.05432482 -0.029603567 0.0018138317
0.058743667 0.17482214 0.07757907 0.123550095 -0.039261833 -0.1371227 0.112714685 0.0996601
-0.15189241 0.12972271 -0.081546165 0.045220513 0.13629311 0.16869645 -0.0075373314 0.022735674
00000000: 47b8 323e ac54 fd3d da70 033e 5fba 0abe
00000010: 2945 92bd 91cc 543c e011 c6bd 1dc6 aa3b
00000020: 555e 1f3e 91bf 123e 16c7 b2bd 68c2 75bd
00000030: 9c7e ebbd fd99 103e 1649 21be d4b3 0f3e
00000040: e497 18be 2237 f83d 14ea 41bd 3488 ea3d
00000050: e766 29bd 1e64 a53d 4f8e 05be 626b 2ebe
00000060: 4c58 11be 6d16 c63d f08e 2dbe b864 15be
00000070: 4e57 0c3e a005 bbbd 5d00 dfbd 2b24 203e
00000080: 0aca 66bd 4ff9 c43d 5c33 d13d be43 1dbd
00000090: e5d7 34bd 1196 c9ba 1455 e23c 92ce ab3d
000000a0: a7c2 063e c9c2 db3d 0de0 db3d 6cda 653c
000000b0: 637d adbd dc89 94bd e5f9 f4bd e82f 09be
000000c0: acd5 bf3c 36a8 cfbd 1d0a febd 0b5e 463d
000000d0: 9e3b 20bb 9ffc ec3d 299a 803d feff 34be
000000e0: a374 9a3d 5b36 bebd d991 183e 3607 cb3d
000000f0: f57c 333e 81b8 973d 726a 9d3d f8b0 1b3e
00000100: f653 193d ddd6 d63d 973d 0dbe 3064 193e
00000110: 1625 bc3d dc89 253e 7fb2 253d f7b3 1e3e
00000120: 2d0e cc3d 776b 81bd 1158 0d3a 8907 8dbd
00000130: 56da d1bd dedd 113c 48b4 fa3c 68b7 9ebd
00000140: 7545 a33d 1932 02be 70b5 d33d d3d2 293d
00000150: 525c 1ebe b183 08be 3cc6 17bd ab8e 59bd
00000160: 5a81 603d fb16 703d 8b62 023e 0a01 28be
00000170: 2cf3 33be 734f eabd b53c c93c c89f 2f3e
00000180: ff5d a9bd 831e d5bd 376d 1f3e 4706 6b3d
00000190: 482d 18be fe31 ddbc 7daa 1ebd df84 00be
000001a0: 7f90 323e 64b2 d4bd 7946 73bd e612 0f3e
000001b0: a95c 12bd 8ee5 2e3e 74f6 c93c 9a0e 183d
000001c0: c651 c9bd dda4 7dbd 8eb4 0fbc 4e3d 2bbe
000001d0: 85ad 2e3e 8448 033e 8ca7 963b 82ff c23d
000001e0: 1f99 9a3c 2ec0 143e b45d 273e d7db c2bd
000001f0: dc76 1c3c cf25 c6bd f6f9 cabc fa8d 303e
00000200: ba10 a0bd 9847 6c3c ef35 4b3c 718c 3f3a
00000210: 5c91 12bd 7f91 15be 4482 9d3d 750c 6dbd
00000220: a02d cb3d e0b5 1d3e 0d14 023e a586 923c
00000230: cea7 a0bc b483 5ebd 2e83 f2bc 18be ed3a
00000240: 339d 703d 9304 333e c7e1 9e3d d507 fd3d
00000250: 04d1 20bd e569 0cbe f5d6 e63d 981a cc3d
00000260: af89 1bbe 08d6 043e ad01 a7bd 2539 393d
00000270: 6c90 0b3e c3be 2c3e b8fb f6bb 2a40 ba3c

fc5.bias f4 [5]
-0.14993358 -0.037792996 0.15048972 0.11280374 0.13211088
00000000: 3088 19be d4cc 1abd fa19 1a3e a605 e73d
00000010: 1348 073e
