Assets/MyObjects/ours.onnx (onnx, 19808 bytes, 10 tensors)

fc1.weight f4 [32, 32]
0	0x3da583f5	0.080818094
1	0x3df5bc10	0.11998761
2	0x3d2036b6	0.039114676
3	0x3e215e9d	0.15758748
4	0xbdb76e58	-0.08956593
5	0x3df8a5c9	0.12140996
6	0x3e126569	0.14296497
7	0x3e1b9348	0.15192902
8	0x3da15ee1	0.07879425
9	0xbdff6f75	-0.124724306
10	0xbdda1dfd	-0.10650251
11	0xbd19027d	-0.03735589
12	0xbe2a9c83	-0.16661267
13	0x3dd58355	0.1042544
14	0xbdc841b2	-0.097781554
15	0xbce8025c	-0.028321438
16	0xbe18efc4	-0.14935213
17	0x3e1ecd01	0.1550789
18	0x3c674bf9	0.014117234
19	0xbe0d20bb	-0.13782017
20	0x3cf1b94d	0.029507304
21	0xbd3e8c3f	-0.046520468
22	0x3dca01d8	0.09863633
23	0x3e2a27b6	0.16616711
24	0x3df8b8fd	0.12144659
25	0xbdeefe01	-0.11669541
26	0xbcc60717	-0.024173303
27	0xbd8c43a5	-0.0684884
28	0x3dab9aaa	0.08379109
29	0x3d6b887f	0.05750322
30	0xbc2f3ea7	-0.01069609
31	0x3d9a1daf	0.07525193
32	0x3de82261	0.11334682
33	0xbe1a19dd	-0.15048929
34	0xbe12431c	-0.14283413
35	0x3becfb49	0.007232104
36	0x3d8beabf	0.06831884
37	0x3e15a1e3	0.14612536
38	0x3ddb77fc	0.107162446
39	0x3d838fa9	0.064238854
40	0xbcd3c339	-0.025849925
41	0x3dbdd899	0.09269828
42	0xbd97976c	-0.07401928
43	0x3da5ca57	0.08095234
44	0x3e10e7c7	0.14150916
45	0x3cea7ade	0.02862304
46	0x3de1102d	0.109894134
47	0x3e2d69e0	0.1693492
48	0x3da47238	0.08029598
49	0xbe029587	-0.12752353
50	0xbe003c21	-0.12522937
51	0xbda164b9	-0.078805394
52	0xbd744b9e	-0.059642427
53	0xbde0146c	-0.10941395
54	0xbd069c57	-0.03286394
55	0xbc711037	-0.014713339
56	0xbcf0dc54	-0.029401936
57	0xbe033428	-0.12812865
58	0xbd97e608	-0.07416922
59	0x3df45e6f	0.11932074
60	0x3e0d0278	0.13770473
61	0xbdd0001a	-0.10156269
62	0xbe06406b	-0.13110511
63	0xbe2e7959	-0.17038478
64	0xbc1b635a	-0.0094841365
65	0xbd8d6972	-0.06904878
66	0x3dd100bf	0.102052204
67	0xbd90ad20	-0.07064271
68	0x3d66259e	0.05618822
69	0xbe34832b	-0.17628162
70	0x3c260a4f	0.010134294
71	0x3dbebdde	0.09313558
72	0xbe0c8f87	-0.13726626
73	0xbc865a29	-0.016400414
74	0x3e133704	0.14376456
75	0xbe166d50	-0.14690137
76	0x3cfda43f	0.030962108
77	0xbd7a3ac5	-0.061091203
78	0xbdc436e3	-0.09580781
79	0xbde679ee	-0.11253725
80	0x3b9ff515	0.004881511
81	0xbe2ede70	-0.1707704
82	0x3ccd578e	0.025066163
83	0xbd0d900a	-0.034561194
84	0xbe1b3259	-0.15155925
85	0xbdb90b23	-0.09035327
86	0xbd9884d5	-0.07447211
87	0xbd847c4a	-0.06469019
88	0xbdaafec2	-0.083493724
89	0xbdf61331	-0.12015379
90	0xbd13701f	-0.0359956
91	0xbdc142f5	-0.09436599
92	0x3d92af72	0.0716237
93	0x3df5892f	0.11989056
94	0x3cf6c44d	0.0301229
95	0xbb79cf71	-0.003811803
96	0x3de80ad6	0.11330192
97	0x3c107a8c	0.00881828
98	0x3c830dd4	0.015997805
99	0x3824d822	3.9301936e-05
100	0xbe261f97	-0.16222988
101	0xbe20e46e	-0.15712139
102	0x3e15c780	0.14626884
103	0x3dc9d653	0.09855332
104	0xbe284d44	-0.16435724
105	0xbd6c00ba	-0.05761788
106	0x3d99cf54	0.07510248
107	0x3cf00d31	0.029303165
108	0x3dd35224	0.103184015
109	0x3d885078	0.06655973
110	0xbda25a99	-0.079274364
111	0x3d88a9f9	0.06673045
112	0x3d9e3fa6	0.07726984
113	0x3e04c0e8	0.12964213
114	0xbd95589f	-0.07292294
115	0xbdc04d29	-0.09389717
116	0x3b541403	0.003236056
117	0xbdb1cc11	-0.08681501
118	0x3d8ef077	0.06979459
119	0x3bef90c9	0.007310961
120	0xbcce1553	-0.025156653
121	0xbc0387ce	-0.008027984
122	0xbdd1cf3c	-0.10244605
123	0xbe0f1da9	-0.13976158
124	0xbe05da61	-0.13071586
125	0xbdc3be20	-0.09557748
126	0x3e036ef7	0.12835298
127	0xbe05c36b	-0.13062827
128	0xbde40ac2	-0.111348644
129	0xbdf98cb3	-0.12185039
130	0xbda336a7	-0.079694085
131	0xbd6dcdea	-0.058057703
132	0xbc27037a	-0.0101937
133	0x3d246ac6	0.04014089
134	0xbe209703	-0.15682606
135	0x3e05c674	0.13063985
136	0x3d638eaf	0.055555996
137	0x3d7205b1	0.05908746
138	0xbe1f416c	-0.155523
139	0x3de8faa5	0.11375932
140	0x3e0c8217	0.137215
141	0x3d27311b	0.040818315
142	0x3cb216f9	0.02173947
143	0x3d3bacb9	0.045819018
144	0xbe2b09f9	-0.16703023
145	0xbdbbdf86	-0.09173493
146	0x3dd93565	0.10605887
147	0x3de16dbf	0.110072605
148	0x3e139d25	0.14415415
149	0x3e03b794	0.12862998
150	0xbc375143	-0.011188808
151	0xbdf4723e	-0.119358525
152	0xbde448fe	-0.11146735
153	0xbd8fffcc	-0.07031211
154	0x3e05f338	0.13081062
155	0x3e189cbd	0.14903541
156	0xbbaa9334	-0.0052055363
157	0xbded3509	-0.11582381
158	0xbd21a0a4	-0.03945984
159	0x3b02963e	0.0019925977
160	0x3d1e676d	0.038672853
161	0xbd628c03	-0.055309307
162	0xbe25c19f	-0.16187142
163	0xbda38469	-0.079842396
164	0x3dd4ecc0	0.10396719
165	0xbe0300f5	-0.12793334
166	0x3c960abf	0.018315671
167	0x3c332462	0.010933967
168	0xbe24af7c	-0.16082567
169	0xbcae3846	-0.021267068
170	0x3c968faf	0.01837906
171	0x3db03eac	0.08605704
172	0xbd3b3ae1	-0.04571045
173	0xbda8e9db	-0.082477294
174	0x3de3db9d	0.11125872
175	0x3d8c2c7a	0.06844421
176	0x3d50cea4	0.050978318
177	0xbe1fa34c	-0.15589637
178	0x3e2cec1b	0.16886942
179	0x3d114c34	0.035473064
180	0x3e113c8b	0.14183252
181	0x3d8cbb93	0.068717144
182	0xbe300a95	-0.17191537
183	0x39ae66b9	0.000332644
184	0x3df8ff66	0.121580884
185	0xbd889bb0	-0.0667032
186	0x3e33fa1e	0.17575881
187	0x3d42200a	0.047393836
188	0x3d44f620	0.048086286
189	0xbe2a30bd	-0.16620155
190	0xbd198991	-0.03748471
191	0x3e1927df	0.14956616
192	0xbcf59521	-0.029978337
193	0x3cf86a4f	0.03032413
194	0x3bf2c973	0.0074092685
195	0xbbbe5742	-0.005808742
196	0x3dd3bcdc	0.103387564
197	0xbe056232	-0.1302574
198	0xbde24211	-0.110477574
199	0x3e1d9f68	0.1539284
200	0x3e066013	0.13122587
201	0x3e1f4895	0.15555032
202	0xbc6c85ff	-0.014436244
203	0xbe2e9d05	-0.17052086
204	0x3dcb5f6f	0.09930312
205	0x3dcc256c	0.09968075
206	0xbe0705ec	-0.13185853
207	0xbe028341	-0.12745382
208	0xbc44f675	-0.012021651
209	0x3d5ffb39	0.054682944
210	0x3dfd0ecd	0.12356339
211	0xbdbfd30d	-0.093664266
212	0x3df2546f	0.11832511
213	0xbe00c5ba	-0.12575427
214	0xbd2a4281	-0.04156733
215	0x3e0d2e88	0.13787282
216	0xbe1aed06	-0.1512948
217	0xbe015935	-0.12631686
218	0x3d8761e3	0.06610467
219	0x3dd03e5c	0.10168144
220	0x3ba8035c	0.0051273536
221	0xbccf96eb	-0.025340518
222	0x3dcff275	0.10153667
223	0xbe145383	-0.14484982
224	0xbd3553d6	-0.044269405
225	0x3de92602	0.113842025
226	0xbd9a0b69	-0.075217076
227	0x3e27cd9c	0.16387028
228	0x3bf6cd3a	0.007531789
229	0x3dc02091	0.093812115
230	0xbc7851c8	-0.015156217
231	0xbd1f2647	-0.038854863
232	0xbe1449f7	-0.1448134
233	0x3c69855f	0.01425299
234	0xbc22d611	-0.009938733
235	0x3e2cbec7	0.16869651
236	0x3d7d59fa	0.061853386
237	0x3e1998fe	0.14999768
238	0x3ddfc7a3	0.109267496
239	0xbe25456e	-0.16139767
240	0xbe0c279d	-0.13686986
241	0xbe22c940	-0.15897083
242	0x3c282a57	0.010264001
243	0x3e343d9f	0.17601632
244	0xbc038c7d	-0.0080291005
245	0x3af8c209	0.0018978725
246	0x3df6c170	0.12048614
247	0x3d51955c	0.05116783
248	0xbd269bee	-0.04067605
249	0xbe0660c0	-0.13122845
250	0x3da97922	0.082750574
251	0x3df7ea4d	0.12105236
252	0xbd3bf073	-0.045883607
253	0x3db8efd9	0.09030122
254	0x3d740d0f	0.059582766
255	0x3e0b93c2	0.13630584

fc1.bias f4 [32]
0	0xbe19f12d	-0.15033408
1	0xbd5ca56f	-0.053868707
2	0x3d8ce9f0	0.068805575
3	0x3e0684d4	0.13136607
4	0x3dda1882	0.10649206
5	0xbd091cde	-0.033474796
6	0x3e2d61ec	0.16931885
7	0xbe098d55	-0.1343282
8	0x3e28954e	0.16463205
9	0x3e2fc459	0.17164744
10	0x3da77bf3	0.08177938
11	0xbd6c7d22	-0.057736523
12	0x3d3b6da3	0.045758855
13	0x3e2bc746	0.16775236
14	0x3da50158	0.08056897
15	0xbddbddb6	-0.107356474
16	0x3dcba101	0.099428184
17	0xbe0e520f	-0.1389849
18	0xbe15a4a6	-0.1461359
19	0xbdeacac5	-0.114644565
20	0x3def4f93	0.116850995
21	0xbcbbbc75	-0.022917012
22	0xbe1d75d3	-0.15376978
23	0xbe309bf8	-0.17246997
24	0xbddceacf	-0.10786974
25	0x3dd262eb	0.10272773
26	0x3df269c2	0.11836578
27	0xbdad6290	-0.08466065
28	0xbc4e453b	-0.012589748
29	0x3d9531e8	0.072849095
30	0xbd2b7a95	-0.04186495
31	0xbdd98522	-0.10621096

fc2.weight f4 [5, 32]
0	0x3d9f64d8	0.07782906
1	0x3d2acacc	0.04169731
2	0x3dcdd4cd	0.10050354
3	0x3e0d3cec	0.13792771
4	0x3d03227e	0.032015316
5	0xbd10e026	-0.035370015
6	0xbdf2a437	-0.11847728
7	0x3d7ceadf	0.061747428
8	0x3dc0138e	0.0937873
9	0x3dcd328e	0.10019408
10	0xbd8898e5	-0.06669787
11	0xbd83c063	-0.06433179
12	0xbd008a6e	-0.031382017
13	0x3d1fdd05	0.03902914
14	0x3de661f4	0.11249152
15	0xbd3343ea	-0.04376594
16	0x3e347f7a	0.17626753
17	0x3cb65073	0.022255158
18	0x3c0d9da1	0.008643539
19	0xbdf76c78	-0.12081236
20	0x3dad2d1f	0.08455872
21	0xbc25cbd2	-0.010119395
22	0x3c918b9f	0.017766772
23	0xbdcfe957	-0.10151928
24	0x3e1cfab9	0.15330018
25	0xbe039eba	-0.12853518
26	0x3ad4e660	0.0016242974
27	0xbde204e7	-0.11036091
28	0x3cdd3741	0.027003886
29	0xbd910fbc	-0.07083079
30	0x3db48aee	0.08815561
31	0x3db3af2a	0.08773644
32	0xbd84528f	-0.06461059
33	0x3e143ad0	0.1447556
34	0xbd9cc7db	-0.07655307
35	0x3d0b201b	0.033966165
36	0x3e1237fa	0.14279166
37	0xbd85eda1	-0.06539465
38	0xbdb67034	-0.0890812
39	0x3dc21bf9	0.094779916
40	0xbabd1888	-0.0014426867
41	0xbe27bc2d	-0.16380377
42	0xbde5e7cd	-0.11225853
43	0xbdeb4ea6	-0.114896104
44	0xbe0cb7fe	-0.13742062
45	0xbe2bebbd	-0.16789146
46	0x3dce46a5	0.10072068
47	0x3d8d1539	0.068888135
48	0xbdc78a8b	-0.09743222
49	0xbdb823dc	-0.08991215
50	0xbdf316ec	-0.118696064
51	0x3d0b0230	0.033937633
52	0xbe0e517d	-0.13898273
53	0x3c3eda84	0.011648778
54	0x3e171969	0.14755787
55	0x3c20e553	0.0098203
56	0xbdd06c33	-0.10176887
57	0xbe338517	-0.17531238
58	0xbcb6066d	-0.02221986
59	0xbd013198	-0.031541437
60	0xbe14d55c	-0.14534515
61	0xbde8500b	-0.11343392
62	0xbcc273b3	-0.02373681
63	0x3e0e6ce8	0.13908732
64	0x3e220c20	0.15824938
65	0xbd1751da	-0.036943294
66	0xbd1466fe	-0.036231034
67	0x3e07eea0	0.13274622
68	0xbcab3a14	-0.020901717
69	0xbc659728	-0.014013089
70	0x3d164400	0.036685944
71	0x3e2749a1	0.16336681
72	0x3de75f0d	0.112974264
73	0xbdb4c273	-0.08826151
74	0x3d3eda78	0.046595067
75	0xbae2873e	-0.0017282737
76	0xbe0b48f0	-0.13602042
77	0xbdfdbb7b	-0.12389275
78	0xbdc092ee	-0.094030246
79	0x3e3348b8	0.17508209
80	0xbda934d5	-0.0826203
81	0xbdff5329	-0.124670334
82	0xbdfaa77a	-0.12238975
83	0x3cef667e	0.029223677
84	0x3cdb7e81	0.02679372
85	0xbe26fbf1	-0.16307046
86	0xbdb5e0d9	-0.08880777
87	0xbbeb719b	-0.0071851737
88	0x3e2cca47	0.16874038
89	0x3d461ccb	0.048367303
90	0xbd229be2	-0.039699443
91	0xbd92da0a	-0.07170494
92	0x3e09877f	0.13430594
93	0xbce4dd5d	-0.027937585
94	0x3c44a46f	0.012002095
95	0xbd5e8be7	-0.05433264
96	0x3e086459	0.1331953
97	0xbd947289	-0.07248408
98	0x3e156275	0.1458834
99	0xbcf6639a	-0.03007679
100	0x3b8675c8	0.004103396
101	0xbdbbde30	-0.09173238
102	0x3cb907d8	0.022586748
103	0xbdf8bdf0	-0.12145603
104	0xbc15ebd0	-0.00915046
105	0x3ce6f790	0.028194219
106	0x3d3cb33d	0.046069372
107	0xbd67d039	-0.05659506
108	0x3c573c80	0.013136983
109	0xbdacf643	-0.08445408
110	0x3e32b257	0.17450844
111	0x3e145726	0.1448637
112	0x3e04ff16	0.12987933
113	0x3c855ab8	0.01627861
114	0xbc409650	-0.011754587
115	0x3d83c131	0.06433333
116	0x3c32e14c	0.010917973
117	0xbd6f31e1	-0.058397178
118	0x3dd546b0	0.10413873
119	0xbcc1cf9b	-0.023658564
120	0x3c8f3114	0.017479457
121	0x3ddf94bc	0.10917041
122	0x3d61055c	0.05493675
123	0x3dcc0bb1	0.099631675
124	0x3cedd71c	0.029033236
125	0xbc08f2e2	-0.008358689
126	0x3e2fc482	0.17164806
127	0xbd47711c	-0.048691854
128	0x3d93ad41	0.0721078
129	0x3e284515	0.16432603
130	0x3e1afaf3	0.15134792
131	0xbded5cfd	-0.11590002
132	0x3dc12652	0.09431137
133	0xbe2a6edc	-0.16643852
134	0x3dd3eb6b	0.10347637
135	0xbdfbf190	-0.12301934
136	0xbce05e26	-0.027388643
137	0xbe190e2b	-0.14946811
138	0x3d83b50d	0.06431017
139	0xbe2dc4cd	-0.16969605
140	0x3caa42db	0.020783832
141	0x3df26e90	0.118374944
142	0xbd78749c	-0.060658082
143	0xbe026928	-0.12735426
144	0xbd4d93b4	-0.05018969
145	0x3e01a8f5	0.12662108
146	0x3dd181bd	0.10229824
147	0xbd4f0e67	-0.050550845
148	0x3dcdf655	0.1005675
149	0xbd94c257	-0.0726363
150	0xbe174821	-0.14773609
151	0x3e197f06	0.14989862
152	0xbe17dd81	-0.14830591
153	0x3e0ae13b	0.13562481
154	0xbd2a38e4	-0.04155816
155	0x3da6403d	0.08117721
156	0x3e0e9ba3	0.13926558
157	0x3c8191b7	0.015816553
158	0xbc8582fa	-0.016297806
159	0xbd90495e	-0.07045244

fc2.bias f4 [5]
0	0xbdd48ffd	-0.10379026
1	0x3c723593	0.014783281
2	0xbcd31f2d	-0.025771702
3	0x3d7d4d8f	0.061841544
4	0x3ddfab73	0.10921373

onnx::Conv_42 f4 [64, 3, 1]
0	0xbf08ebf4	-0.53485036
1	0xbe23c6a7	-0.15993749
2	0x3e0bf44b	0.13667409
3	0xbe447176	-0.19183907
4	0xbeaf7801	-0.34271243
5	0x3ed1bfce	0.40966648
6	0xbde83928	-0.11339027
7	0xbe9b06f3	-0.3027874
8	0x3ecc3a8a	0.39888412
9	0xbe026518	-0.12733877
10	0x3db77d57	0.089594536
11	0xbeb96e91	-0.36217168
12	0xbda802a7	-0.08203631
13	0xbdee5f51	-0.11639274
14	0x3f15e930	0.5855894
15	0x3d947645	0.072491206
16	0xbe9a0bb4	-0.30087054
17	0x3e020ebc	0.12700933
18	0x3d826c40	0.06368303
19	0xbec3682a	-0.38165408
20	0x3f0d6f5a	0.55248034
21	0xbe985ba1	-0.29757407
22	0x3e6261a0	0.22107553
23	0xbf0c00df	-0.5468883
24	0x3f1ababf	0.604412
25	0x3e7a8021	0.2446294
26	0x3e15d333	0.14631347
27	0x3ebe237d	0.3713645
28	0x3f03038b	0.5117728
29	0xbeecc068	-0.46240544
30	0x3e44c0d9	0.1921419
31	0x3e73b312	0.23798779
32	0x3c79612a	0.01522092
33	0xbea0ceb5	-0.31407705
34	0xbdd5a7e5	-0.10432414
35	0x3f0ffb27	0.56242603
36	0x3f003ee9	0.50095993
37	0xbe1124b9	-0.14174165
38	0x3f11ea3c	0.5699804
39	0xbeef8d49	-0.4678748
40	0x3f181b7d	0.59416944
41	0x3da5c98f	0.08095085
42	0x3f0e1329	0.55497986
43	0xbf0de85d	-0.55432683
44	0xbe40180c	-0.18759173
45	0x3f075d68	0.528769
46	0x3f00c0a5	0.5029395
47	0x3f14cba7	0.5812325
48	0xbefd3249	-0.49452427
49	0x3e3351bf	0.17511652
50	0xbf11fc8e	-0.5702599
51	0xbe1c93eb	-0.15290801
52	0x3ec9c84c	0.39410627
53	0xbdb9b931	-0.090685256
54	0xbf158703	-0.58409137
55	0x3e30220d	0.1720049
56	0x3e57f23a	0.21088496
57	0x3e9214dd	0.28531542
58	0xbf07c05a	-0.5302788
59	0x3f0e316b	0.55544156
60	0x3e073a03	0.13205723
61	0x3e25eb1d	0.1620297
62	0xbe812a2b	-0.25227484
63	0x3f0189dd	0.5060099
64	0x3ef7f521	0.48429206
65	0xbedb7b9f	-0.42867753
66	0xbf096fb3	-0.53686064
67	0x3f117e46	0.568333
68	0x3f11cda1	0.5695439
69	0xbc9af4c3	-0.01891554
70	0xbef0c6b8	-0.4702661
71	0xbf0925a1	-0.5357304
72	0x3e938583	0.288128
73	0x3efd7901	0.4950638
74	0x3ea2e0b3	0.31812057
75	0x3eaf0497	0.3418319
76	0x3e17965d	0.14803453
77	0x3f157fcb	0.5839812
78	0x3db69c8b	0.08916577
79	0xbece5ef7	-0.40306827
80	0xbe02f624	-0.12789208
81	0xbe7605db	-0.24025671
82	0x3f0a80d0	0.541028
83	0x3e1cf69e	0.15328452
84	0xbf0cd340	-0.5500984
85	0xbf06741c	-0.5252092
86	0x3e4e2a31	0.20133282
87	0x3e91efc0	0.28503227
88	0xbcac948e	-0.02106693
89	0x3e49422b	0.19654147
90	0xbd7eb3f7	-0.062183347
91	0xbf18f052	-0.597417
92	0xbde963b1	-0.11395968
93	0x3e35805b	0.17724745
94	0xbf12718a	-0.57204497
95	0xbf0251e7	-0.50906223
96	0xbdd73ac4	-0.105092555
97	0x3e3e5b8f	0.18589614
98	0x3b4c4569	0.0031169301
99	0x3f0eabb3	0.5573074
100	0x3c690908	0.014223345
101	0xbe43275f	-0.19057988
102	0x3d59b9c3	0.05315567
103	0xbe2422f5	-0.1602896
104	0xbb91b872	-0.0044470364
105	0x3e4d834b	0.20069616
106	0xbe31bd9b	-0.17357485
107	0x3e2ccc50	0.16874814
108	0xbef7c6bd	-0.48393813
109	0xbe55fcdf	-0.20897244
110	0xbe0749ba	-0.13211718
111	0xbf1163c3	-0.5679285
112	0xbeedcf46	-0.464472
113	0x3d37c62c	0.044866726
114	0x3bdf360b	0.0068118623
115	0x3dfbf8ad	0.123032905
116	0x3ed3757c	0.4130057
117	0x3a8499b2	0.0010116606
118	0x3e99df54	0.30053198
119	0xbe34a1f7	-0.1763991
120	0x3eec21bc	0.46119487
121	0x3ed08cbf	0.4073238
122	0xbeeed8bc	-0.4664973
123	0xbd7b5413	-0.061359476
124	0x3e8b6c91	0.27231267
125	0x3e21677c	0.15762132
126	0x3bd5c0d1	0.0065232296
127	0xbe240ce5	-0.16020544
128	0x3e1d395a	0.15353909
129	0xbe193718	-0.14962423
130	0xbeb90169	-0.36133888
131	0x3eb750e9	0.35803917
132	0xbe86f3fb	-0.26358017
133	0x3f0a9929	0.54139954
134	0xbf068721	-0.5254994
135	0x3e13702b	0.14398257
136	0xbe6ee533	-0.2332962
137	0x3dc67a97	0.09691351
138	0xbe8a9a34	-0.27070773
139	0xbe07e376	-0.13270363
140	0xbed10624	-0.40824997
141	0x3e09431d	0.13404508
142	0x3ee038bf	0.43793294
143	0x3daafb55	0.08348719
144	0x3e1c4916	0.15262255
145	0xbd79d47d	-0.06099366
146	0xbe5f0fb7	-0.21783338
147	0x3e19c120	0.15015078
148	0x3e0d2f0b	0.13787477
149	0x3db577ba	0.08860727
150	0x3f01abbc	0.5065267
151	0xbeb3adfe	-0.35093683
152	0xbd36ffc8	-0.044677526
153	0xbe21f2b8	-0.15815246
154	0x3e662cce	0.22478029
155	0xbe5104e1	-0.20412017
156	0xbdc3ddbb	-0.09563776
157	0x3f1aceb6	0.60471666
158	0xbf0e44ea	-0.55573905
159	0x3f07ea87	0.53092235
160	0xbec56d21	-0.3855982
161	0x3eea7555	0.45792642
162	0x3f08252e	0.5318173
163	0xbef79010	-0.48352098
164	0xbebb767a	-0.36613828
165	0x3de3fc07	0.11132055
166	0xbdfe44ce	-0.12415467
167	0xbe7b08d7	-0.24515091
168	0x3c7c4485	0.015397196
169	0x3ef2b6e5	0.47405162
170	0xbeaaa2c6	-0.3332731
171	0xbf123a5b	-0.57120293
172	0xbd99b86b	-0.07505878
173	0xbdeca5bd	-0.115550496
174	0x3f153718	0.5828719
175	0xbee4e841	-0.44708446
176	0xbe96031b	-0.29299244
177	0xbea2e353	-0.3181406
178	0x3e9b70fb	0.30359635
179	0x3e1121c7	0.14173041
180	0xbeff607a	-0.49878293
181	0x3e29ef88	0.1659528
182	0xbe8f24d9	-0.279578
183	0x3d7ddb9d	0.061977018
184	0x3eb8f36e	0.36123222
185	0x3e801051	0.25012448
186	0xbe3f42fa	-0.18677893
187	0xbf080995	-0.5313962
188	0xbe842bf6	-0.2581479
189	0x3e0e78e9	0.13913311
190	0x3e71758a	0.23579994
191	0x3ee26368	0.44216466

onnx::Conv_43 f4 [64]
0	0x3e27c6e0	0.16384459
1	0x3eaa7ddc	0.33299148
2	0xbe5e26db	-0.2169451
3	0xbcafbcb3	-0.021452283
4	0x3eac699e	0.3367433
5	0x3e881ab4	0.26582873
6	0x3e800ac5	0.25008217
7	0xbec681a7	-0.38770792
8	0x3ef900bc	0.48633373
9	0x3ea99e58	0.3312862
10	0xbf00e829	-0.5035425
11	0x3e73dfc7	0.23815833
12	0x3eb92e28	0.36168027
13	0xbd0514c1	-0.032490496
14	0x3dd0d5ae	0.10197006
15	0xbf061e23	-0.52389735
16	0x3e26fcaa	0.16307321
17	0xbd8822cf	-0.06647264
18	0x3d4d6b0a	0.05015091
19	0xbecb4914	-0.39704192
20	0xbf00b925	-0.5028251
21	0x3e9ddef2	0.30834156
22	0x3de14c59	0.1100089
23	0xbea77098	-0.3270309
24	0x3edbfe39	0.42967394
25	0x3efb02f8	0.49025702
26	0x3da5dc41	0.08098651
27	0x3ddded3c	0.108362645
28	0x3e83f570	0.2577319
29	0x3ece3a1d	0.40278712
30	0x3ed6a02f	0.41919085
31	0x3ecc6e60	0.3992796
32	0xbe4a3e8d	-0.19750424
33	0xbef2d950	-0.4743142
34	0xbd57f6af	-0.05272549
35	0x3eaa3084	0.3324014
36	0x3e8ee6d2	0.27910477
37	0x3f1355f0	0.57553005
38	0x3eb5bb3f	0.3549442
39	0xbeac4d11	-0.33652547
40	0xbe4f53c5	-0.202468
41	0xbe6c4f76	-0.23077187
42	0x3ec93436	0.39297646
43	0xbeeba448	-0.46023774
44	0x3f04671f	0.5171985
45	0x3dbf8426	0.09351377
46	0xbebb399b	-0.36567387
47	0xbe60e8bf	-0.21963786
48	0x3e87eece	0.2654938
49	0xbefafa55	-0.49019113
50	0x3e4fd1ec	0.20294923
51	0xbe3bcb81	-0.1833935
52	0xbf01b3ea	-0.5066515
53	0xbe71b8da	-0.23605672
54	0x3dd0eb5e	0.10201143
55	0x3c75c8d4	0.015001494
56	0xbd7ff578	-0.062489957
57	0x3f097779	0.53697926
58	0x3f092164	0.53566575
59	0xbe914e55	-0.28380075
60	0x3e291003	0.16510014
61	0xbddda87d	-0.10823152
62	0xbeb59939	-0.35468462
63	0xbe2a09ed	-0.16605349

onnx::Conv_45 f4 [32, 64, 1]
0	0x3dc3b5dc	0.09556171
1	0x3ccada94	0.02476243
2	0x3d52e580	0.0514884
3	0x3dc48764	0.09596136
4	0xbda3d289	-0.07999141
5	0x3df28963	0.11842611
6	0xbd8e02f0	-0.06934154
7	0x3dba7b24	0.091055185
8	0x3c911e44	0.017714627
9	0x3dc5e04c	0.09661922
10	0xbcd34f2b	-0.025794586
11	0xbdb54a89	-0.08852107
12	0xbce60a6c	-0.028081141
13	0x3dc59259	0.09647054
14	0xbd563a57	-0.05230173
15	0x3c988243	0.018616801
16	0x3daad909	0.083421774
17	0x3c678090	0.014129773
18	0x3acce068	0.0015630843
19	0xbdd16233	-0.10223808
20	0x3c49701b	0.012294794
21	0xbdffc9c4	-0.124896556
22	0xbdbf57ec	-0.09342942
23	0x3da8d7c0	0.08244276
24	0xbdbd38ad	-0.09239326
25	0x3deb6cce	0.11495362
26	0xbd14283d	-0.036171187
27	0xbc1024ea	-0.0087978635
28	0xbdf1ff76	-0.118163034
29	0x3cb7afdf	0.022422729
30	0xbadcd3ab	-0.001684775
31	0x3dffad97	0.124842815
32	0xbdd7dd86	-0.10540299
33	0xbe0161b3	-0.12634926
34	0x3dd3de8f	0.10345184
35	0x3c778b0a	0.015108833
36	0x3d13d284	0.036089435
37	0x3d96b3fc	0.07358548
38	0xbd6a56f6	-0.05721184
39	0x3dc9070a	0.09815796
40	0xbdd21b4d	-0.102591135
41	0x3da0b58e	0.07847129
42	0xbbd70d47	-0.006562862
43	0xbdbc8424	-0.09204891
44	0x3dd8fd72	0.10595216
45	0x3cfe72c3	0.031060582
46	0xbdd01b55	-0.10161463
47	0x3d60fb79	0.054927323
48	0xbdd53589	-0.10410602
49	0xbdc30870	-0.09523094
50	0x3daab18e	0.08334647
51	0x3bdb4c43	0.0066924407
52	0xbc7c8699	-0.01541295
53	0xbca3d27e	-0.019997831
54	0x3cad0caf	0.021124212
55	0xbca6ca9d	-0.020360285
56	0x3d35dce1	0.0444001
57	0x3dc07d17	0.09398859
58	0x3df78e18	0.12087649
59	0x3def7f06	0.1169415
60	0x3d9af42a	0.07566102
61	0x3e02bd69	0.12767567
62	0x3d39af57	0.045333233
63	0x3d014a21	0.031564835
64	0x3d81a913	0.063310765
65	0xbd8eeeb7	-0.06979125
66	0x3db29afb	0.087209664
67	0xbdc7d583	-0.09757521
68	0x3c3996d1	0.011327461
69	0x3cb4141b	0.021982243
70	0x3d7cc154	0.06170781
71	0x3d18d143	0.037308943
72	0xbdb94701	-0.09046746
73	0xbdb65414	-0.089027554
74	0xba65f683	-0.000877239
75	0x3de804d5	0.11329047
76	0xbdd8b386	-0.105811164
77	0x3c173ae4	0.009230349
78	0xbdc4ee7d	-0.096158005
79	0x3c8bacf9	0.017050253
80	0xbdf49e34	-0.11944237
81	0x3b4301ee	0.002975579
82	0xbcaf31de	-0.021386083
83	0x3e01f1f7	0.12689959
84	0x3d77ba19	0.06048021
85	0xbd885c44	-0.06658223
86	0xbdf4a247	-0.119450144
87	0xbdeda7eb	-0.116042934
88	0x3df95536	0.12174456
89	0x3e0553f9	0.13020314
90	0x3d9bd2ba	0.07608552
91	0x3dc1b9cf	0.09459268
92	0x3d41d4aa	0.047321953
93	0xbd78af47	-0.060714033
94	0x3c1b3fb6	0.009475639
95	0xbd4be4bc	-0.049778685
96	0x3dc70696	0.09718053
97	0xbd3e24c3	-0.046421777
98	0xbdc969c2	-0.09834625
99	0xbda3b0df	-0.0799272
100	0xbdf2e2aa	-0.11859639
101	0x3e0408c5	0.1289397
102	0x3dab3181	0.083590515
103	0x3d6aa6ad	0.05728786
104	0x3d7c72ff	0.061633106
105	0xbd1fd34a	-0.03901986
106	0xbd805cd9	-0.06267709
107	0xbdcbf3fd	-0.099586464
108	0xbd88b291	-0.06674684
109	0x3d3bea3f	0.04587769
110	0x3c370fb3	0.011173177
111	0xbd57466d	-0.052557398
112	0xbdca6165	-0.09881858
113	0x3db5c869	0.08876116
114	0xbd62921f	-0.055315133
115	0x3cb39b8d	0.021924758
116	0xbd06cd7d	-0.032910813
117	0xbd13f7db	-0.036125045
118	0x3d839f22	0.064268366
119	0xbb7456a3	-0.0037283085
120	0xbd9c255c	-0.07624313
121	0xbdf984bd	-0.12183521
122	0x3dd3da1c	0.103443354
123	0xbd041570	-0.032247007
124	0xbcadbc7a	-0.021208037
125	0x3dc2246a	0.09479602
126	0xbdbf24ac	-0.093331665
127	0x3e00dfa1	0.12585308
128	0xbd181a3f	-0.037134405
129	0xbdf746b4	-0.120740324
130	0x3e050046	0.12988386
131	0x3d689ada	0.056788303
132	0x3c85be39	0.016326057
133	0xbdaabad6	-0.083364174
134	0x3d839469	0.06424791
135	0xbdb0288b	-0.08601483
136	0xbde2921e	-0.11063026
137	0xbd47c4b3	-0.04877157
138	0x3d58b50a	0.052907027
139	0xbd9ed4ee	-0.07755457
140	0x3d3194bd	0.04335474
141	0x3ddb04f6	0.106943056
142	0x3d88e6b5	0.06684629
143	0x3d7d7ee1	0.06188858
144	0xbdad3cd3	-0.08458867
145	0xbe013124	-0.12616402
146	0xbe040cab	-0.12895457
147	0x3d7abab9	0.06121323
148	0x3d4b5c4a	0.04964856
149	0xbdf3f035	-0.1191105
150	0x3c605795	0.013692756
151	0xbc7d023d	-0.015442428
152	0xbdb345e2	-0.087535635
153	0x3df0f0e9	0.117647
154	0x3da6c4e9	0.081430264
155	0xbcc6ca15	-0.024266282
156	0xbdb98d79	-0.09060187
157	0xbdb1be4b	-0.08678874
158	0xbdf447f9	-0.1192779
159	0xbd25013c	-0.04028438
160	0xbdf08ae7	-0.117452435
161	0xbd1bf36f	-0.038073953
162	0xbd1bd0c5	-0.038040895
163	0xbb8e3e0d	-0.004340893
164	0xbd55f9db	-0.052240234
165	0x3d0b9520	0.034077764
166	0xbc4a456a	-0.012345651
167	0x3da10709	0.0786267
168	0x39fc695b	0.00048143681
169	0xbd9b5d5e	-0.07586168
170	0xbd144f19	-0.036208246
171	0x3d8a80f9	0.06762881
172	0xbe04ce7f	-0.12969397
173	0xbd2e5ef3	-0.04257102
174	0xbd0b6005	-0.03402712
175	0xbd9bed54	-0.07613626
176	0xbc79278d	-0.015207184
177	0x3db208c3	0.086930774
178	0xbe003e96	-0.12523875
179	0xbd484463	-0.048893344
180	0xbe036b68	-0.12833941
181	0x3e0181d4	0.12647182
182	0x3dcac00e	0.09899913
183	0x3dd95b1f	0.10613083
184	0xbd814d1c	-0.063135356
185	0x3e00449d	0.12526174
186	0xbd992988	-0.074786246
187	0x3b9731f9	0.0046141115
188	0xbdf4fdde	-0.11962484
189	0xbd956004	-0.07293704
190	0xbda6f27e	-0.081517205
191	0xbdd563e8	-0.10419446
192	0x3dd5f05b	0.10446235
193	0xbde4ab18	-0.11165446
194	0xbd0c29fc	-0.034219727
195	0xbda662d6	-0.0812432
196	0xbba2de63	-0.004970358
197	0xbd9c42ef	-0.07629954
198	0x3c329b30	0.010901257
199	0xbddbdab0	-0.10735071
200	0x3da6d026	0.0814517
201	0x3dedae14	0.116054684
202	0x3d88a8f7	0.066728525
203	0x3d53ad2d	0.051678825
204	0x3d1438c5	0.036186952
205	0xbde666e8	-0.112500966
206	0x3d431505	0.047627468
207	0xbd51349e	-0.05107557
208	0x3d72c13c	0.059266314
209	0x3bffe3a0	0.0078091174
210	0xbd46f58c	-0.048574015
211	0x3dd4bf28	0.10388023
212	0xbca4c185	-0.020111809
213	0x3dcd8368	0.100348294
214	0xbd785568	-0.060628325
215	0x3c748a07	0.014925486
216	0x3c95f4da	0.01830523
217	0xbdba02c1	-0.090825565
218	0xbd5972fe	-0.05308818
219	0x3d0fda56	0.03512033
220	0xbcbe3a5f	-0.023221193
221	0x3dd73746	0.105085894
222	0x3c711b1a	0.014715934
223	0xbdf63fb6	-0.12023871
224	0x3da8f176	0.0824918
225	0x3de05f63	0.109556936
226	0xbcfd7ffd	-0.030944819
227	0x3d53de76	0.051725827
228	0xbd79f8cc	-0.061028287
229	0xb9519066	-0.00019985586
230	0x3df81e96	0.12115209
231	0x3d1cc7bd	0.038276423
232	0xbdce8204	-0.10083392
233	0x3d4a1815	0.049339373
234	0x3d05c479	0.032658074
235	0xbd8a2f89	-0.06747348
236	0xbd15bda9	-0.036557827
237	0x3d7e9232	0.06215114
238	0xbdaf7e2c	-0.08568987
239	0xbda0ff7d	-0.078612305
240	0xba1cfb36	-0.0005988361
241	0x3d9dc076	0.07702725
242	0x3d3686e5	0.04456224
243	0x3d551338	0.05202028
244	0x3ce2fd8c	0.027708791
245	0xbd4848ad	-0.048897434
246	0xbdc86697	-0.097851925
247	0x3dc1620e	0.094425306
248	0x3dfdb883	0.123887084
249	0xbd9d4440	-0.07679033
250	0x3de1b666	0.11021118
251	0x3c09de80	0.008414865
252	0x3cb1387d	0.021633381
253	0x3e018d2c	0.12651509
254	0x3dc4a344	0.09601453
255	0x3c7195e5	0.01474521

onnx::Conv_46 f4 [32]
0	0xbc7d7b7d	-0.015471336
1	0xbdc63a61	-0.09679104
2	0xbd56cd48	-0.052441865
3	0x3dba29fc	0.09090039
4	0x3d9de202	0.07709123
5	0x3d2cca34	0.042185023
6	0xbb88e05f	-0.0041771377
7	0xbbf67c54	-0.0075221453
8	0xbc11ae69	-0.00889168
9	0xbd228f23	-0.039687287
10	0xbce90a91	-0.028447421
11	0xbd28fe42	-0.041258104
12	0xbd4a0f04	-0.049330726
13	0xbcdd24f8	-0.026995167
14	0xbd8d37e1	-0.06895424
15	0xbd8eafdd	-0.06967137
16	0xbe03ef4b	-0.12884252
17	0x3d9d5869	0.076828785
18	0xbd6fac5d	-0.058513988
19	0xbcc2597d	-0.023724312
20	0xbdbdabcf	-0.092612855
21	0xbc8c68fe	-0.017139908
22	0x3e146b73	0.14494114
23	0xbd916551	-0.07099403
24	0xbd8083bc	-0.06275126
25	0xbd45425b	-0.048158985
26	0xbe1404d9	-0.14454974
27	0x3dc78d2e	0.09743725
28	0x3d48b14e	0.048997216
29	0x3c8d432a	0.01724394
30	0xbcaab354	-0.020837463
31	0xbd522b1c	-0.051310644

onnx::Conv_48 f4 [32, 32, 1]
0	0xbdff5d88	-0.124690115
1	0x3ddfe3e3	0.10932138
2	0x3e1fee88	0.15618336
3	0x3e1092a4	0.14118439
4	0xbe1d08d1	-0.15335394
5	0x3dbfc848	0.093643725
6	0x3c944f5e	0.018104251
7	0x3d8a1f47	0.06744247
8	0xbe1cc9de	-0.15311381
9	0x3dc644d1	0.096810944
10	0x3a9aa2ef	0.0011797826
11	0x3d76c47a	0.06024597
12	0x3b90ad34	0.0044151787
13	0x3d084f2b	0.033278625
14	0x3e11c1f3	0.14234142
15	0x3cdbf93f	0.026852248
16	0x3deecfbc	0.11660716
17	0xbcc194f0	-0.02363059
18	0xbda29710	-0.07938969
19	0xbd5a7613	-0.05333526
20	0xbe3a4c56	-0.18193182
21	0xbd96d8d2	-0.07365574
22	0xbe1d2a51	-0.15348174
23	0xbbb8847d	-0.005631028
24	0xbd37b7d5	-0.04485305
25	0x3e2fb04e	0.17157099
26	0x3d847f67	0.064696126
27	0xbd8cea8f	-0.06880676
28	0xbe33136e	-0.1748788
29	0xbe30e949	-0.17276491
30	0xbe10127a	-0.14069548
31	0x3c46eaf5	0.012140979
32	0xbe3bd218	-0.18341863
33	0x3df9a451	0.12189544
34	0xbd908b0d	-0.07057772
35	0x3d8bd5a3	0.06827857
36	0xbe116801	-0.1419983
37	0x3c8f8b58	0.017522499
38	0xbce1d406	-0.027566921
39	0xbdc7620b	-0.09735497
40	0x3d8d8881	0.06910802
41	0xbcdd8d59	-0.027044939
42	0x3df9a391	0.12189401
43	0x3e169849	0.1470653
44	0x3e39fd9c	0.1816315
45	0xbe2b55a7	-0.16731893
46	0x3e322056	0.17395148
47	0x3e088228	0.133309
48	0x3d0c177e	0.03420209
49	0xbd2214f3	-0.03957076
50	0x3de9c087	0.11413675
51	0xbd96a576	-0.07355778
52	0x3d97f62c	0.074200004
53	0xbdeb8b49	-0.11501176
54	0x3e0f53f8	0.13996875
55	0x3e002d89	0.1251737
56	0x3dd803cd	0.105476
57	0x3b197e19	0.0023421107
58	0x3dceb9c6	0.10094027
59	0x3d8f2e53	0.069912575
60	0x3e0cdc53	0.13755922
61	0x3e1bedc3	0.15227418
62	0xbcbe148f	-0.023203162
63	0xbdd17256	-0.10226886
64	0xbd535758	-0.05159697
65	0xbdcc1ea9	-0.099667855
66	0xbd1a0213	-0.037599634
67	0x3d5a79fa	0.053338982
68	0x3e25da6a	0.161966
69	0xbe0ae548	-0.13564026
70	0x3dc2d1e5	0.095126905
71	0x3d8e329d	0.069432475
72	0x3d23b817	0.039970484
73	0x3e030820	0.12796068
74	0x3c2f1222	0.010685476
75	0x3ddd474b	0.10804614
76	0xbe0d9fb4	-0.13830453
77	0xbe158661	-0.14602043
78	0x3dfd99f3	0.12382879
79	0x3dbff041	0.09371997
80	0x3d7b3354	0.061328247
81	0xbd5b7c46	-0.053585313
82	0xbd4a5567	-0.049397852
83	0x3e17ad7d	0.14812274
84	0x3daef820	0.0854342
85	0xbda91ea2	-0.08257796
86	0x3e29f948	0.16599
87	0x3e2d802d	0.16943426
88	0xbe2290b0	-0.15875506
89	0x3def1f37	0.11675876
90	0x3d3eeac3	0.046610605
91	0x3e069843	0.1314402
92	0xbd6c4169	-0.057679567
93	0xbd810be0	-0.06301093
94	0xbdaeb29a	-0.08530159
95	0xbe2e22ea	-0.17005506
96	0x3e212bf9	0.1573943
97	0x3e2b0f75	0.16705115
98	0x3d86a259	0.06573934
99	0x3e3b612a	0.18298784
100	0xbdfc7b53	-0.1232821
101	0xbe0541ac	-0.13013333
102	0x3e3b8e16	0.1831592
103	0x3dba210d	0.09088335
104	0xbe19bb60	-0.15012884
105	0x3dd226a1	0.10261274
106	0xbda8ce00	-0.082424164
107	0x3d6dba1d	0.05803882
108	0xbe107908	-0.1410867
109	0xbd161b9a	-0.036647417
110	0xbdecb763	-0.11558416
111	0xbd45d347	-0.048297193
112	0xbdc1488f	-0.094376676
113	0xbe366f68	-0.17815936
114	0xbcec5e32	-0.02885351
115	0xbdb8f590	-0.09031212
116	0x3df4c327	0.11951285
117	0x3e32f0f4	0.17474729
118	0xbd89f6c1	-0.06736518
119	0xbdeead27	-0.1165412
120	0xbe1e04e3	-0.15431552
121	0x3dd8f884	0.105942756
122	0x3e16f722	0.14742711
123	0xbd07f081	-0.033188347
124	0x3ce3d968	0.027813628
125	0xbe398db9	-0.18120469
126	0xbd877eb5	-0.06615964
127	0xbe0076b6	-0.12545285
128	0xbd0a19b3	-0.033715915
129	0xbe2d4e8c	-0.16924495
130	0x3df10eb1	0.1177038
131	0xbcf59b11	-0.029981168
132	0x3d831c6f	0.06401908
133	0x3de67106	0.11252026
134	0xbe327b6d	-0.17429896
135	0xbd3da03e	-0.046295397
136	0x3dd4acb3	0.10384502
137	0xbe09dc12	-0.13462856
138	0x3e29f7cb	0.16598432
139	0x3da77c9f	0.081780665
140	0x3dd48631	0.103771575
141	0xbe0dddee	-0.1385419
142	0xbe0d3098	-0.13788068
143	0xbe351fac	-0.17687863
144	0xbe2ba39c	-0.16761631
145	0x3da24f59	0.079252906
146	0xbe14b71c	-0.14522976
147	0xbd66a623	-0.056310784
148	0xba9cf243	-0.0011974055
149	0x3e23fa48	0.16013443
150	0x3e1fb252	0.15595368
151	0x3e232fbd	0.1593618
152	0x3e2f3fe5	0.17114218
153	0xbd63fee9	-0.055663023
154	0x3e1c5e34	0.1527031
155	0xbdad921e	-0.08475135
156	0x3cf83951	0.030300768
157	0xbe1bcfd8	-0.15216005
158	0xbdb86d6a	-0.09005244
159	0xbd4ff0a8	-0.050766617
160	0x3e39a0c8	0.1812774
161	0xbe0db638	-0.13839042
162	0xbe0c1f17	-0.13683735
163	0xbe17011d	-0.14746518
164	0x3da528eb	0.08064445
165	0x3e22c617	0.15895878
166	0xbe13d0d5	-0.14435132
167	0x3e262a81	0.16227151
168	0xbc6dfbf3	-0.014525401
169	0xbdeadeb8	-0.114682615
170	0xbddb190a	-0.10698135
171	0x3e26b69b	0.16280596
172	0xbe35ac27	-0.17741452
173	0xbdf5e370	-0.12006271
174	0x3dac37bb	0.08409067
175	0x3e1aed6c	0.15129632
176	0xbd7b8d8d	-0.06141429
177	0x3e2b89d0	0.1675179
178	0x3c44d25a	0.012013042
179	0xbdcac0d7	-0.099000625
180	0xbe340c45	-0.17582805
181	0xbd95699a	-0.072955325
182	0x3dde97e2	0.10868813
183	0x3df1474a	0.117811754
184	0x3e16461d	0.14675184
185	0xbd49793b	-0.04918788
186	0x3d6d5ada	0.05794797
187	0xbdc9a9b0	-0.098468184
188	0xbdc84e7b	-0.09780594
189	0x3d244dd0	0.04011327
190	0xbe1bebd0	-0.15226674
191	0x3d5fbf14	0.054625586
192	0xbe2571af	-0.16156648
193	0xbd924080	-0.07141209
194	0xbcb1d611	-0.02170852
195	0x3e1dce95	0.15410836
196	0x3d2148a6	0.039375924
197	0xbe17d1fd	-0.14826198
198	0x3dabd317	0.083898716
199	0xbd03aea8	-0.032148987
200	0x3cd94c8e	0.026525762
201	0xbe1a172c	-0.15047902
202	0xbe31f2ec	-0.17377824
203	0xbe316bc5	-0.17326267
204	0xbcf2fa28	-0.0296603
205	0xbe39a159	-0.18127955
206	0xbde870de	-0.11349653
207	0x3c01705e	0.007900326
208	0xbd48a8b9	-0.04898903
209	0xbe2194f5	-0.15779479
210	0xbd8ce69c	-0.06879923
211	0x3e018d7a	0.12651625
212	0x3d95a1af	0.07306229
213	0xbd9ecb6e	-0.07753645
214	0xbd1834b0	-0.03715962
215	0xbda227c3	-0.0791774
216	0x3c8a3a4f	0.016873507
217	0xbe1f1687	-0.15535937
218	0xbe2df18e	-0.16986677
219	0x3db3617a	0.087588266
220	0xbdf27a6e	-0.11839758
221	0x3ab06a5e	0.0013459434
222	0x3dae14e6	0.0850008
223	0xbe071867	-0.13192903
224	0xbcd4fd15	-0.025999585
225	0xbd81aee1	-0.06332184
226	0xbdf018e7	-0.117235
227	0x3e106b97	0.14103542
228	0x3d15dc4f	0.036587056
229	0xbe2e53a5	-0.17024095
230	0xbc3ea585	-0.011636143
231	0x3e2051f5	0.15656264
232	0x3da618b4	0.081101805
233	0xbe1c9a80	-0.15293312
234	0xbdc4787e	-0.095932946
235	0xbd2503c1	-0.040286783
236	0x3e316910	0.17325234
237	0xbd421560	-0.047383666
238	0x3c2c5588	0.010518439
239	0x3dae12d9	0.08499689
240	0x3d0d2566	0.034459494
241	0x3e25fd73	0.16209964
242	0x3e220c60	0.15825033
243	0xbd965327	-0.07340079
244	0x3e3ace58	0.18242776
245	0x3ca07077	0.019584877
246	0xbe2b361e	-0.16719863
247	0x3e332ef6	0.17498383
248	0xbdaec803	-0.08534243
249	0xbd80d351	-0.062903054
250	0x3e06469c	0.13112873
251	0x3dda018d	0.10644827
252	0xbc9afffa	-0.018920887
253	0x3d3b1430	0.04567355
254	0xbb95067b	-0.0045478917
255	0xbd8971cc	-0.06711158

onnx::Conv_49 f4 [32]
0	0xbd448ecb	-0.04798774
1	0x3dac6318	0.08417338
2	0x3d3f3e2f	0.046690162
3	0xbe0ba0f7	-0.13635622
4	0x3db2221d	0.08697913
5	0x3de79f8b	0.11309727
6	0x3e52c114	0.20581466
7	0xbde76026	-0.11297636
8	0xbdfe3177	-0.124117784
9	0xbdaa4d6d	-0.08315549
10	0xbd9f26eb	-0.07771095
11	0x3da51dac	0.080623
12	0xbe056ab1	-0.13028981
13	0x3e092a67	0.13395081
14	0x3e1ee4f9	0.15517034
15	0x3e20020c	0.15625781
16	0x3e1995b1	0.14998509
17	0x3d29fba0	0.041499734
18	0x3c4b18c3	0.01239604
19	0xbcdd6f7c	-0.027030699
20	0xbddbf97d	-0.107409455
21	0x3dbbb3ca	0.091651514
22	0xbe0214af	-0.12703203
23	0xbb7c95f6	-0.0038541532
24	0x3c8143a8	0.015779331
25	0xbd0054db	-0.031330924
26	0x3e3335a5	0.17500933
27	0x3e1d6257	0.15369545
28	0xbd7ae915	-0.06125744
29	0xbd7e593c	-0.06209682
30	0xbe262222	-0.16223958
31	0x3d64c27c	0.055849537
